models/downstream_head.pth (torch, 533173 bytes, 6 tensors)

net.0.weight f4 [256, 256]
0	0x3d588c1a	0.052867986
1	0x3d814faf	0.063140266
2	0xbcc3166a	-0.023814399
3	0x3d70a642	0.058752306
4	0xbc5e9e24	-0.013587508
5	0x3c91be4c	0.017790936
6	0xbd1b0918	-0.03785047
7	0x3d2c517f	0.04206991
8	0x3d60f285	0.054918785
9	0xbd617c3d	-0.055050123
10	0x3d754627	0.059881356
11	0x3c8e3f02	0.017364029
12	0x3d682b6e	0.056682043
13	0x3c181b44	0.009283844
14	0x3cfdf782	0.03100181
15	0xbc30fc98	-0.010802411
16	0x3d52cd9d	0.05146562
17	0x3bcc0dec	0.0062272456
18	0xbd074d2e	-0.03303259
19	0x3ca0ffe6	0.019653272
20	0xbcf150e0	-0.02945751
21	0xbbc56af3	-0.006024712
22	0xbcf4371c	-0.029811434
23	0x3d5d5208	0.05403331
24	0xbd6f95c8	-0.058492452
25	0xbd2544dc	-0.040348873
26	0xbcb17818	-0.02166371
27	0xbd2ffa4b	-0.042963307
28	0x3bf733c9	0.007544015
29	0xbd8c180b	-0.06840523
30	0x3d896696	0.0670902
31	0xbd6e2d67	-0.058148768
32	0x3d4af102	0.04954625
33	0x3c6f7667	0.014615632
34	0xbcd02b59	-0.025411295
35	0x3d378ce8	0.044812113
36	0x3c245a10	0.010031238
37	0x3d68b583	0.056813728
38	0x3c58cbda	0.013232196
39	0xbc94961f	-0.01813799
40	0x3c8028c7	0.015644444
41	0xbcad0402	-0.021120075
42	0x3d0133a9	0.031543408
43	0x3d84cef5	0.064847864
44	0x3d3bb1e5	0.04582395
45	0xbd1ce370	-0.03830284
46	0x3d2dad73	0.042401742
47	0x3c5c105b	0.013431634
48	0x3d0e27a5	0.034705777
49	0xbd436494	-0.04770334
50	0xbd84f222	-0.06491496
51	0xbcc92d80	-0.024557829
52	0xbd448139	-0.0479748
53	0x3d6c7e4b	0.05773763
54	0x3c89b1b6	0.016808372
55	0x3ce08b1e	0.027410086
56	0x3cb9def0	0.022689313
57	0xbbb38657	-0.005478661
58	0x3d6444ce	0.05572968
59	0xbd635a0b	-0.055505794
60	0x3955f370	0.0002040395
61	0xbd487009	-0.04893497
62	0x3ccbb2bf	0.024865506
63	0xbcc6eea9	-0.024283724
64	0x3cda5da5	0.026655981
65	0xbc4c8eed	-0.012485248
66	0x3d5db4a9	0.05412737
67	0xbd192763	-0.037391078
68	0xbd22eea0	-0.03977835
69	0xbd2152f7	-0.039385762
70	0x3d7a8d55	0.06116994
71	0x3cc14afa	0.023595322
72	0x3d8589c6	0.06520419
73	0xbd658e6f	-0.05604404
74	0xbd8b5540	-0.068033695
75	0xbd6cdb6b	-0.05782644
76	0xbd320bb9	-0.04346821
77	0x3cddedeb	0.027090987
78	0x3d0107f1	0.031501714
79	0x3d658c06	0.05604174
80	0xbd10bf72	-0.035338826
81	0xbd3418fa	-0.043969132
82	0x3d33d516	0.043904386
83	0xbce3ee83	-0.027823692
84	0x3d40eddf	0.04710185
85	0xbc4c061b	-0.0124526275
86	0x3d3e0b41	0.04639745
87	0xbd6d82dc	-0.057986125
88	0xbcfb33e9	-0.030664401
89	0x3cac9240	0.021065831
90	0x3c2a8163	0.010406825
91	0xbc9a2dca	-0.018820662
92	0x3d3868bf	0.04502177
93	0x3d3771d5	0.044786293
94	0xbd427628	-0.047475964
95	0xbd2ed7d2	-0.04268629
96	0x3d78ba07	0.060724284
97	0xbcae609e	-0.021286305
98	0xbcab8b66	-0.020940494
99	0xbd8aafca	-0.0677181
100	0xbd0b21a9	-0.033967648
101	0x3c8709d9	0.016484188
102	0xbc7f68ca	-0.0155889485
103	0xbd6adf00	-0.057341576
104	0xbc39e11b	-0.011345173
105	0xbd486197	-0.048921194
106	0xbd85df46	-0.06536727
107	0xbd1b93a6	-0.037982605
108	0xbd713a17	-0.05889329
109	0xbd223f56	-0.039611183
110	0x3d845a63	0.064625524
111	0x3c914db4	0.017737247
112	0x3ca2f545	0.019892344
113	0xbd74f33a	-0.05980227
114	0xbd4de238	-0.050264567
115	0xbcc85789	-0.024455803
116	0x3c06bbea	0.008223513
117	0xbd668ff9	-0.056289647
118	0xbcd9e2e6	-0.026597451
119	0xbd52a31b	-0.05142508
120	0x3a965a02	0.0011470916
121	0xbcde0494	-0.027101792
122	0xbb93406a	-0.0044937627
123	0xbd31fff5	-0.04345699
124	0xbd4b7db6	-0.049680434
125	0xbd31509a	-0.04328976
126	0xbc8ef55a	-0.017450977
127	0xbd5da64b	-0.054113667
128	0x3d67f973	0.056634378
129	0xbc882508	-0.01661922
130	0x3d85ad17	0.06527155
131	0x3cb2f6db	0.021846225
132	0xbd5b69c5	-0.053567667
133	0x3d634d34	0.05549355
134	0xbcb6255f	-0.022234617
135	0xbd19c64c	-0.037542626
136	0xbd5903a2	-0.05298198
137	0xbd8e3632	-0.06943931
138	0x3c90454b	0.017611166
139	0xbcb260fe	-0.021774765
140	0x3d3a1aa5	0.045435566
141	0xbd8313ee	-0.06400286
142	0x3d6e8bfa	0.05823896
143	0xbd86e193	-0.065859936
144	0xbbb549f2	-0.0055324966
145	0x3bf663b6	0.0075192107
146	0x3d0e8963	0.03479899
147	0x3d63ed4e	0.055646233
148	0x3d858204	0.06518939
149	0xbd529451	-0.051410977
150	0x3d1041d1	0.035219017
151	0xbcdbae07	-0.026816381
152	0xbbdebcea	-0.0067974227
153	0xbd451a80	-0.048120975
154	0x3d7325bb	0.059362154
155	0xbd798bf2	-0.060924478
156	0x3d08a0fe	0.03335666
157	0x3cea1f8b	0.028579494
158	0x3c527d54	0.012847263
159	0xbd11c0aa	-0.03558413
160	0x3d7890ec	0.060685083
161	0x3c25aa51	0.010111407
162	0x3c223323	0.009899887
163	0xbd7835d1	-0.0605982
164	0x3d056c1e	0.03257381
165	0xbbd77443	-0.006575139
166	0xbc8ccb71	-0.017186852
167	0x3d73811e	0.059449308
168	0x3c8480be	0.01617467
169	0xbd17737f	-0.03697538
170	0xbd36ec58	-0.04465899
171	0x3c9434f3	0.018091654
172	0x3d38cd03	0.04511739
173	0xbc7a8be8	-0.015292145
174	0xbd29d561	-0.04146326
175	0xbcf3faa9	-0.02978261
176	0xbd46702b	-0.048446815
177	0x3caa6263	0.020798868
178	0x3d776b43	0.060405027
179	0xbd8cfccd	-0.068841554
180	0x3c69b7e4	0.014265034
181	0x3d2ae5d0	0.041723073
182	0x3c249fa2	0.010047825
183	0xbcc5fc3f	-0.024168132
184	0x3d1d2d11	0.038373057
185	0x3d20472a	0.039130367
186	0x3d0bc239	0.034120772
187	0xbc4a9db4	-0.012366701
188	0xbc9b76c1	-0.018977525
189	0x3c262560	0.010140747
190	0xbc3cf110	-0.011532083
191	0xbcbbcf8a	-0.02292611
192	0x3d502020	0.050811887
193	0x3d6d15c2	0.057882078
194	0xba86ffc6	-0.0010299615
195	0xbca93a6c	-0.02065774
196	0xbb8065ef	-0.0039184014
197	0xbb8c5640	-0.0042827427
198	0x3cb19854	0.021679081
199	0x3c9a8c30	0.018865675
200	0xbd6fb68d	-0.058523703
201	0xbccf1607	-0.025279058
202	0x3d5b2f48	0.053511888
203	0x3ce34722	0.02774388
204	0xbb9960ea	-0.0046807425
205	0xbd32f129	-0.04368702
206	0xbd3be442	-0.04587198
207	0xbd83c255	-0.0643355
208	0xbcfbd344	-0.030740388
209	0x3ced11db	0.028939178
210	0x3d31e918	0.043435186
211	0x3d094e70	0.03352207
212	0xbd74ff91	-0.05981404
213	0xbd5017e1	-0.050804023
214	0xbc2a93b7	-0.0104111945
215	0x3d7f63f5	0.062351186
216	0x3bef9c69	0.0073123467
217	0xbc80c390	-0.015718251
218	0x3d0abe8f	0.033873137
219	0xbcc29bfe	-0.023756023
220	0xbd3423ca	-0.043979444
221	0x3d629585	0.055318374
222	0xbd0b8feb	-0.034072798
223	0xbc4af4f9	-0.012387508
224	0xbd914037	-0.07092326
225	0x3d39f0c9	0.045395646
226	0x3d5b5fb6	0.053558074
227	0x3cb90a8d	0.022588039
228	0xbd5e4f99	-0.05427513
229	0xbd863a4b	-0.06554087
230	0xbd6835aa	-0.056691803
231	0x3d4e46d2	0.05036051
232	0x3d10fdbf	0.03539824
233	0x3d7618dd	0.060082305
234	0x3d18000a	0.037109412
235	0x3c9ce3a0	0.019151509
236	0xbc236620	-0.009973079
237	0xbd68356a	-0.056691565
238	0xbd6e266b	-0.058142107
239	0xbd98648e	-0.07441054
240	0x3d2845c1	0.041082148
241	0xbd166876	-0.036720715
242	0xbca17a65	-0.019711683
243	0xbd198ae2	-0.037485965
244	0xbc05e189	-0.008171448
245	0xbd4b6fda	-0.049667217
246	0xbd213e7f	-0.03936624
247	0x3cb768b3	0.022388792
248	0xbcb815e6	-0.02247138
249	0x3d31019e	0.043214433
250	0xbcdc1901	-0.026867392
251	0xbd4a8762	-0.049445517
252	0xbc63f509	-0.013913401
253	0xbd0c9dbf	-0.034330126
254	0xbc9514b6	-0.018198352
255	0xbd814b58	-0.06313199

net.0.bias f4 [256]
0	0x3cee75e2	0.029108945
1	0x3d573bea	0.052547373
2	0x3d61a0ea	0.0550851
3	0x3ccf0957	0.025273008
4	0xbd2f089b	-0.042732816
5	0x3b8f6f8b	0.0043773106
6	0x3ce804d5	0.028322617
7	0xbd3f7757	-0.04674467
8	0xbd319ba2	-0.043361314
9	0x3d68df8f	0.056853827
10	0x3c4cc8cf	0.012499048
11	0x3c30f04c	0.010799479
12	0x3be56161	0.007000134
13	0x3cbd184e	0.023082878
14	0xbbab1580	-0.005221069
15	0xbcff8ae1	-0.031194152
16	0xbc2e15f1	-0.010625348
17	0x3c148020	0.0090637505
18	0x3c1550c5	0.009113495
19	0x3cc379de	0.023861822
20	0x3c977306	0.018487465
21	0xbc763f41	-0.015029729
22	0x3d161f8f	0.03665119
23	0xbc129414	-0.008946437
24	0x3d24e52c	0.040257618
25	0xbd37cea0	-0.044874787
26	0xbd0e1bc4	-0.034694448
27	0xbd4873b5	-0.04893847
28	0x3a983676	0.001161291
29	0xbd5d55ae	-0.05403679
30	0x3d48e241	0.049043898
31	0x3d044712	0.03229434
32	0xbc9b7d74	-0.01898072
33	0x3d12ff4a	0.035887994
34	0x3d575a03	0.052576076
35	0xbd734cc9	-0.0593994
36	0x3cd80fe2	0.026374761
37	0xbd65d8d2	-0.05611498
38	0x3d3b0b0b	0.04566483
39	0x3d28cda7	0.04121175
40	0x3d2af645	0.041738767
41	0xbc165d67	-0.009177542
42	0x3c120f59	0.008914792
43	0xbd378a7d	-0.044809807
44	0x3d08b0c6	0.03337171
45	0xbd80acd0	-0.06282961
46	0xbcf19a5c	-0.02949255
47	0xbc956160	-0.018234909
48	0x3cc35660	0.023844898
49	0x3c573866	0.013136005
50	0xbc91bec8	-0.017791167
51	0xbc5209b7	-0.012819699
52	0x3ce0fc8a	0.02746417
53	0x3d1f60ee	0.0389108
54	0x3ca944ab	0.020662626
55	0xbd5293de	-0.05141055
56	0xbd1bd38a	-0.038043536
57	0x3d83acba	0.06429429
58	0xbd01ba87	-0.031672027
59	0xbcd140dc	-0.025543623
60	0x3d1fc0c4	0.039002195
61	0x3cb2311f	0.021751938
62	0xbd070c41	-0.03297067
63	0x3d20f17c	0.039292797
64	0x3c88165d	0.016612226
65	0xbc41dff1	-0.011833177
66	0xbc56e842	-0.013116898
67	0x3b7d8509	0.0038684031
68	0xbb6f4a62	-0.0036512841
69	0xbd20e7cb	-0.039283555
70	0xbd5a3620	-0.053274274
71	0xbd21a034	-0.039459422
72	0x3d7639de	0.06011378
73	0x3d51badc	0.051203594
74	0x3ca262a9	0.019822435
75	0x3c5d77f0	0.013517365
76	0x3d405e19	0.04696474
77	0x3d58031b	0.052737337
78	0x3d01dff9	0.031707738
79	0xb9729ec3	-0.00023138062
80	0x3cfd8489	0.030946987
81	0xbcd57f30	-0.026061624
82	0x3d0c264e	0.034216218
83	0x3d474715	0.048651773
84	0x3ca2a23b	0.019852748
85	0xbcf262ef	-0.02958819
86	0x3c7dbdb1	0.0154871205
87	0x3d662755	0.056189854
88	0x3b3a3398	0.00284121
89	0x3d021a34	0.03176327
90	0x3bf7a78d	0.0075578154
91	0x3d168e1e	0.036756627
92	0x3cd41f83	0.025893932
93	0x3c59d201	0.013294698
94	0xbd719b02	-0.058985718
95	0x3d8a768d	0.06760893
96	0xbd6a902b	-0.057266396
97	0xbd54d3df	-0.05195987
98	0x3d75cb5a	0.060008384
99	0xbc291583	-0.01032007
100	0xbd5ca530	-0.053868473
101	0x3d4faed0	0.050703824
102	0xbc6df957	-0.014524779
103	0x3d50c217	0.05096635
104	0x3d5cf62f	0.053945716
105	0xbd723635	-0.059133727
106	0xbd5ae8ae	-0.053444557
107	0x3b71e41a	0.003690964
108	0xbc6e8dfb	-0.014560218
109	0xbd65551d	-0.055989373
110	0xbd139675	-0.03603216
111	0x3d4abb37	0.04949495
112	0x3cdc039b	0.026857188
113	0x3cbccffa	0.02304839
114	0x3d06791b	0.03283034
115	0x3ce18656	0.027529877
116	0x3d39a909	0.04532722
117	0xbb91648b	-0.0044370345
118	0xbb831af5	-0.0040010163
119	0x3d74112f	0.0595867
120	0x3b797495	0.0038063873
121	0xbbde1a93	-0.0067780702
122	0x3d485a60	0.048914313
123	0x3d0e63fd	0.034763325
124	0x3b6e0f91	0.0036325196
125	0x3d480960	0.048837066
126	0x3d723968	0.059136778
127	0x3b828797	0.0039834487
128	0xbcd3e870	-0.02586767
129	0x3cb05910	0.021526843
130	0x3d64d680	0.055868626
131	0xbd0a3469	-0.03374139
132	0xbd4654cb	-0.04842071
133	0xbca45240	-0.020058751
134	0x3bf61193	0.007509419
135	0xbd43fe4b	-0.047849935
136	0xbd0d02e7	-0.034426596
137	0x3ba2a8bb	0.004963962
138	0x3d5cb01d	0.053878892
139	0x3d24f9b6	0.040277205
140	0x3d3828d2	0.044960804
141	0x3cc96da1	0.024588408
142	0x3ca07786	0.019588243
143	0x3d73033b	0.059329253
144	0xbc86f8c9	-0.016476052
145	0xbb4992b0	-0.0030757599
146	0x3c6176c1	0.013761223
147	0x3bc23d87	0.005927745
148	0x3b68925e	0.0035487632
149	0xbcb95d87	-0.022627605
150	0x3d6be52f	0.057591613
151	0x3d1d2c63	0.03837241
152	0xbd33ec8b	-0.043926757
153	0x3c3d057a	0.01153695
154	0xbd524d7f	-0.051343437
155	0x3d73e790	0.059547007
156	0x3cbbc823	0.022922581
157	0x3d04d3ad	0.032428432
158	0x3d82a0a5	0.06378297
159	0x3d6a6205	0.057222385
160	0x3d2f98a1	0.042870168
161	0xbc73ec39	-0.014887863
162	0xbc0ccec4	-0.008594219
163	0x3d2b54d3	0.04182894
164	0x3d4267cc	0.04746227
165	0xbc8d4dac	-0.01724895
166	0x3d70869f	0.058722135
167	0x3d381692	0.0449434
168	0x3d6143f4	0.054996446
169	0xbb42f4d2	-0.0029747975
170	0x3b42336f	0.0029632708
171	0xbd0f2929	-0.034951363
172	0xbd64191e	-0.055688016
173	0xbb3ec187	-0.002910705
174	0x3c7e5e2b	0.015525381
175	0xbd3404ba	-0.04394982
176	0x3c9e8b91	0.01935366
177	0xbd4d7656	-0.050161682
178	0xbd46208d	-0.048370887
179	0x3d7a356e	0.06108611
180	0xbd38479f	-0.04499018
181	0x3b8f84a6	0.0043798266
182	0xbc76d27e	-0.015064834
183	0x3d114e5f	0.03547513
184	0x3c1cd67d	0.009572622
185	0xbcb3781d	-0.02190786
186	0xbd177907	-0.036980655
187	0xbd4185cf	-0.04724675
188	0xbc108c44	-0.008822504
189	0x3d0d3c80	0.034481525
190	0xbbc33fff	-0.0059585567
191	0xbd4406ab	-0.04785792
192	0x3ca454a8	0.020059898
193	0xbd6f7452	-0.05846054
194	0xbd50c20f	-0.05096632
195	0x3d2900e3	0.04126061
196	0xbd74316b	-0.05961744
197	0xbbcb6c68	-0.0062079914
198	0xbd1dec9a	-0.03855572
199	0x3d45b5a9	0.048268948
200	0xbd1e18c2	-0.03859783
201	0xbd5eab17	-0.054362383
202	0x3d50ba7f	0.050959107
203	0x3bbfa797	0.0058488357
204	0xbd3982b6	-0.04529067
205	0x3cf620f9	0.03004502
206	0xbd65c5cc	-0.056096837
207	0x3ccd8202	0.025086407
208	0xbccfef3e	-0.025382634
209	0x3d1b0dca	0.037854947
210	0x3d1a4a16	0.03766831
211	0xbb8ef3c0	-0.0043625534
212	0x3d5394f7	0.051655736
213	0x3c3ac18e	0.011398686
214	0xb857bacd	-5.1433966e-05
215	0x3d64c49a	0.055851556
216	0x3d116535	0.03549691
217	0xbcde851e	-0.027163085
218	0x3cdc8a1c	0.026921324
219	0xbd00cc84	-0.03144504
220	0x3bca2958	0.0061694793
221	0xbd376c7e	-0.0447812
222	0x3d31f698	0.04344806
223	0xbd7715d5	-0.060323555
224	0xbbeaa30f	-0.0071605514
225	0x3d22f3f5	0.039783437
226	0xbcaeb464	-0.021326251
227	0x3d841e79	0.06451125
228	0x3caa376e	0.020778384
229	0x3b3c80ac	0.0028763218
230	0x3cb9d2bf	0.0226835
231	0xbd45fb17	-0.04833516
232	0x3d0997bc	0.03359197
233	0xbd6791d1	-0.056535546
234	0x3ca7e496	0.02049474
235	0x3b623344	0.003451542
236	0x3d62fc4e	0.055416398
237	0xbbf70efb	-0.0075396276
238	0x3c70d95c	0.01470026
239	0xbd6e3730	-0.0581581
240	0x3d217581	0.0394187
241	0xbd7c9bb4	-0.061671928
242	0x3d11ea2b	0.03562371
243	0x3c85ee00	0.016348839
244	0x3d488aba	0.048960425
245	0x3d6ac10e	0.057313018
246	0x3c13d43e	0.00902277
247	0xbd4d5810	-0.05013281
248	0x3d600395	0.054690916
249	0xbd0002b9	-0.031252597
250	0xbd5acb87	-0.053416755
251	0x3d26fb60	0.040767074
252	0xbcf98b06	-0.0304618
253	0x3d2be494	0.041966036
254	0x3d4775d9	0.048696373
255	0xbca06758	-0.019580528

net.2.weight f4 [256, 256]
0	0x3c0d06d5	0.008607586
1	0xbc2d5e64	-0.0105815865
2	0xbc107714	-0.008817453
3	0xbc25dbf9	-0.010123246
4	0xbc59c3eb	-0.013291339
5	0x3d47f950	0.048821747
6	0x3d5267e2	0.0513686
7	0x3ce2cd66	0.027685832
8	0xbd498649	-0.04920033
9	0x3ce8229d	0.028336817
10	0xbd745d7b	-0.059659462
11	0xbc8098c3	-0.015697842
12	0x3ca8c939	0.020603763
13	0xbbd92554	-0.0066267643
14	0xbb5e2e82	-0.0033902233
15	0xbc069c74	-0.008216012
16	0xbd8a28cb	-0.06746062
17	0x3d282995	0.04105528
18	0x3a922c83	0.0011152182
19	0x3d4472a0	0.047960877
20	0xbd6ff331	-0.058581535
21	0x3ca9b0bc	0.020714156
22	0xbd14bb52	-0.036311455
23	0x3c6b89cc	0.014376115
24	0xbcdea9f7	-0.027180655
25	0x39096a15	0.00013104857
26	0x3d8dd960	0.069262266
27	0xbd619325	-0.05507197
28	0xbd02e639	-0.03195784
29	0x3d0dd0d5	0.034622986
30	0xbc0e0baa	-0.008669773
31	0xbc5d1e2e	-0.013495965
32	0xbda3f22a	-0.080051735
33	0x3d827b11	0.06371129
34	0x3ca21870	0.019787043
35	0x3bd003bd	0.006348102
36	0x3c26b924	0.010175977
37	0x3d104750	0.03522426
38	0x3d0fdb0f	0.03512102
39	0xbcf819f7	-0.030285819
40	0xbd2ada0b	-0.04171185
41	0xbd3256e8	-0.04353991
42	0xbd27d2b8	-0.04097244
43	0x3cc32dd6	0.023825567
44	0xbd9ad5f1	-0.07560337
45	0x3d3f7204	0.046739593
46	0x3d4d428d	0.050112296
47	0xbd6d7c92	-0.057980128
48	0x3980b3bc	0.00024547975
49	0x3cd91521	0.026499333
50	0xbd6056d5	-0.05477031
51	0x3c8109a5	0.01575167
52	0x3d23072e	0.03980177
53	0x3cbe335d	0.023217851
54	0xbc51f9e4	-0.012815926
55	0xbce5f19d	-0.028069312
56	0x3ce1b279	0.027550923
57	0xbd36bc5a	-0.04461322
58	0xbcf13b28	-0.029447153
59	0xbc7ba8a0	-0.015360028
60	0x3c8f4ffb	0.017494192
61	0xbd304511	-0.043034617
62	0xbd1ca997	-0.03824767
63	0xbc445ea0	-0.011985451
64	0x3d037de6	0.032102488
65	0x3c4c158f	0.012456312
66	0xbd12f339	-0.035876486
67	0xbde905a0	-0.11378026
68	0xbd7afe64	-0.061277762
69	0x3d474cea	0.048657335
70	0x3cdba0f1	0.026810141
71	0xbc650804	-0.013978962
72	0xbc3f37ac	-0.011670988
73	0xbd790cc3	-0.060803186
74	0xbd3b1cb8	-0.045681685
75	0xbbdaeb8c	-0.0066809114
76	0xbd23c1e8	-0.039979845
77	0xba7dd875	-0.00096834387
78	0xbd9070f8	-0.07052797
79	0x3d1c6031	0.038177673
80	0x3d04ca5c	0.032419547
81	0xbb97197d	-0.0046111927
82	0xbcaa0aa1	-0.020757021
83	0x3bfe7ea8	0.0077665634
84	0x3d2b95dc	0.041890964
85	0x3d27e92a	0.040993847
86	0xbcd91173	-0.026497578
87	0x3c85ddee	0.016341176
88	0x3d78e53f	0.0607655
89	0x3d04b2f4	0.032397225
90	0xbd68f792	-0.056876726
91	0x3c3c9538	0.011510186
92	0xbd6af111	-0.057358805
93	0x3d6c792b	0.057732742
94	0x3ce75fef	0.028243987
95	0x3d431e7a	0.047636487
96	0x3d694f25	0.056960244
97	0x3ce220b0	0.027603477
98	0x3d610384	0.054934993
99	0x3cb37506	0.021906387
100	0x3d3a41e2	0.045472987
101	0xbca88fb4	-0.020576335
102	0xbc882e3e	-0.016623612
103	0xbda10d50	-0.07863867
104	0x3d1ecb77	0.038768258
105	0x3cce0243	0.025147563
106	0xbbc7480e	-0.0060815876
107	0xbcc583d3	-0.02411071
108	0xbd16e4a1	-0.03683913
109	0xbda2074a	-0.079115465
110	0x3bbbbc8b	0.005729263
111	0x3b25c1be	0.0025292481
112	0xbd323add	-0.043513168
113	0x3cbed3ab	0.02329429
114	0x3d11ad48	0.035565645
115	0x3ce70d54	0.028204598
116	0xbce156e7	-0.027507259
117	0x3c7984ec	0.015229445
118	0x3d216232	0.039400287
119	0xbc2f769b	-0.01070943
120	0x3bec778a	0.0072163986
121	0x3cf82441	0.030290725
122	0xbbe14d8f	-0.006875701
123	0x3d57369c	0.052542314
124	0x3cdfceb2	0.02732024
125	0xbcd586dd	-0.026065284
126	0x3aec4939	0.0018027193
127	0x3c9a6157	0.018845243
128	0x3d1edc6b	0.038784426
129	0x3cc95066	0.02457447
130	0xbd4d9134	-0.050187305
131	0xbd82a17c	-0.06378457
132	0xbe06d6da	-0.13167897
133	0xbba9a424	-0.005177038
134	0xbd04f1c2	-0.03245712
135	0xbbda414c	-0.006660616
136	0xbb9bca30	-0.0047543272
137	0x3b10302b	0.0022001367
138	0xbc2754c2	-0.010213079
139	0x3d5e1bfd	0.05422591
140	0xbc98afcb	-0.018638512
141	0xbcee9fe6	-0.02912898
142	0xbd1351a3	-0.035966527
143	0xbd0b2597	-0.033971395
144	0x3b08b449	0.0020859411
145	0xbd6223ae	-0.055209808
146	0xbd80a661	-0.06281734
147	0xbd7a1071	-0.061050836
148	0xbc916062	-0.017746154
149	0x3cd57193	0.026055133
150	0x3d6527ba	0.05594609
151	0xbd296c93	-0.04136331
152	0xbd07d446	-0.033161424
153	0xbd20fbad	-0.039302517
154	0x3bda1197	0.006654929
155	0xbd4c7b61	-0.04992235
156	0xbd73d647	-0.059530523
157	0x3ca877cd	0.020564938
158	0x3d73819e	0.059449784
159	0xbd509fc3	-0.05093361
160	0x3c94659f	0.018114863
161	0x3d9e4d90	0.077296376
162	0xbd4b5ef2	-0.049651094
163	0x3da4a01c	0.08038351
164	0x3c531127	0.012882507
165	0xbd85b972	-0.065295115
166	0x3d8b90ea	0.068147495
167	0xbc9c9493	-0.019113814
168	0x3bcb1bc6	0.006198379
169	0xbd43ccaf	-0.047802623
170	0x3d6367b5	0.055518825
171	0xbbb60853	-0.0055551915
172	0x3d5aae2a	0.053388752
173	0x3bf286e9	0.0074013365
174	0xbd427a4a	-0.047479905
175	0x3d057b62	0.03258837
176	0xbc56e1cb	-0.013115357
177	0xbcf57ef9	-0.029967772
178	0x3d642d97	0.05570754
179	0xbd284145	-0.04107787
180	0x3bca6963	0.006177114
181	0x3d14d231	0.036333267
182	0x3c181121	0.009281428
183	0x3d910db9	0.070826955
184	0x3bb24c14	0.005441198
185	0xbc877f71	-0.016540261
186	0x3d49f4a4	0.049305573
187	0x3d07c63e	0.033148043
188	0xbced1e6c	-0.02894517
189	0xbc7f28bd	-0.015573678
190	0xbd0ef72d	-0.034903694
191	0x3cea14e3	0.028574413
192	0x3c86b5d3	0.016444122
193	0xbbc0ac1a	-0.005879891
194	0xbd3cd7ce	-0.046104245
195	0x3d7539ce	0.05986958
196	0xbb7550ea	-0.0037432262
197	0xbdc4fbe5	-0.096183576
198	0x3d1b810f	0.037964877
199	0xbd5c6507	-0.053807285
200	0xbd5ff639	-0.054678176
201	0x3cd99fb1	0.026565405
202	0xbd7d2475	-0.061802346
203	0xbc56e9ca	-0.013117263
204	0x3cdae131	0.026718708
205	0xbd2f75e5	-0.042837042
206	0xbd4853de	-0.048908107
207	0x3c6d195d	0.014471379
208	0xbc71d58a	-0.014760384
209	0x3d8061d9	0.06268663
210	0xbb3589ee	-0.002770062
211	0xbd40b23b	-0.047044974
212	0x3c2a5c19	0.010397934
213	0xbd8453bf	-0.06461286
214	0xbc503784	-0.012708548
215	0xbc79a8e9	-0.015238025
216	0x3ae682ed	0.0017586626
217	0xbd6f4dba	-0.058423735
218	0x3cc11660	0.02357024
219	0x3d32b406	0.043628715
220	0x3bdb610d	0.006694919
221	0x3d8b53ed	0.06803117
222	0xbd75d955	-0.060021717
223	0x3d3795ee	0.04482072
224	0xbd5f7ad1	-0.054560486
225	0x3d5040a0	0.05084288
226	0xbcd7b397	-0.026330752
227	0xbd27edf4	-0.040998414
228	0x3d30e0bb	0.04318307
229	0x3c87fe89	0.016600864
230	0xbd2138c2	-0.03936077
231	0xbd2f52e1	-0.04280365
232	0x3d16ff49	0.036864553
233	0x3ce11ac0	0.027478576
234	0xbc4fc539	-0.012681299
235	0xbd1e5a33	-0.03866024
236	0x3d702331	0.05862731
237	0xbd4834d9	-0.048878524
238	0xbc104cb9	-0.008807355
239	0xbba3747d	-0.0049882517
240	0xbc2d1869	-0.010564902
241	0xbcb40911	-0.02197698
242	0xbd2e9378	-0.042621106
243	0x3cad4c67	0.021154596
244	0x3d21def0	0.03951925
245	0xbcb8a988	-0.022541776
246	0xbcd1d022	-0.02561194
247	0x3d64b320	0.05583489
248	0xbd2e7942	-0.04259611
249	0x3d7a0b5e	0.061045997
250	0xbd45e669	-0.04831544
251	0x3ab1d8f9	0.0013568691
252	0x3c139d07	0.009009606
253	0xbd6d5de4	-0.05795087
254	0x3ca907fd	0.020633692
255	0xbb3d1461	-0.0028851258

net.2.bias f4 [256]
0	0x3d8141bd	0.06311367
1	0xbd63493f	-0.055489775
2	0x3c83a4ff	0.016069887
3	0x3c3af6c2	0.011411371
4	0xbd1c754e	-0.038197808
5	0x3d623828	0.055229336
6	0xbba9bdd0	-0.005180098
7	0x3ca66235	0.0203105
8	0x3d3a9efa	0.045561768
9	0x39c1315a	0.00036848598
10	0xbd09aac1	-0.03361011
11	0x3ccd473f	0.025058387
12	0xbbcbd96c	-0.006220987
13	0x3d66fbb0	0.05639237
14	0x3d2c4a84	0.04206325
15	0xbd026163	-0.031831156
16	0x3c912c0a	0.017721195
17	0x3d2bcc67	0.04194298
18	0x3d6e09df	0.058114883
19	0xbc5d2596	-0.013497731
20	0xbcb5058f	-0.022097377
21	0xbd3b85e9	-0.045782004
22	0x3d4d63dd	0.050144065
23	0x3c65a40d	0.014016164
24	0x3d4189fb	0.04725073
25	0xba34a21e	-0.00068906124
26	0xbd6a2a7d	-0.057169426
27	0x3d63a36b	0.05557577
28	0x3d3b7fb1	0.045776073
29	0x3d3c14e7	0.04591837
30	0x3d620ffe	0.055191033
31	0x3ce858f0	0.028362721
32	0xbd60b4e3	-0.054860007
33	0x3cbf02e8	0.023316815
34	0xbc98f2d6	-0.01867048
35	0x3d5e9a87	0.054346588
36	0xbc122edb	-0.008922304
37	0xbd218979	-0.039437745
38	0xbb5e1aee	-0.0033890563
39	0xbc6e80ca	-0.014557073
40	0x3d683892	0.056694575
41	0x3bd2b065	0.0064297193
42	0x3d3cfc62	0.04613913
43	0xbd1cf4e6	-0.03831949
44	0xbd6b1cd2	-0.057400532
45	0x3d2b2a4e	0.04178839
46	0x3c42a1eb	0.011879425
47	0x38ab75ea	8.1758786e-05
48	0xbd33101f	-0.043716546
49	0x3d415d4f	0.047208127
50	0x3aa038d4	0.0012223967
51	0x3cc1ba3f	0.02364838
52	0xbc0cf6f0	-0.008603796
53	0xbb86d37a	-0.0041145654
54	0xbd0b2f73	-0.033980798
55	0xbc12189b	-0.008916999
56	0xbc5c724b	-0.013454984
57	0x3d1c1ac1	0.038111452
58	0x3b782216	0.0037862114
59	0x3d5c5b49	0.053797994
60	0x3cf5940a	0.029977817
61	0xbcc83227	-0.024437977
62	0xbd0f6d50	-0.035016358
63	0xbc0fa741	-0.008767904
64	0x3ad5cb71	0.0016311241
65	0xbd26e609	-0.040746722
66	0x3d2e8b9d	0.042613614
67	0xbd1d3793	-0.038383078
68	0xbd349dd6	-0.044095837
69	0x3d563c44	0.052303568
70	0x3d49e2df	0.049288627
71	0xbd0a66a1	-0.03378928
72	0xbd0d8320	-0.03454888
73	0x3b66c7cf	0.003521431
74	0xbd6115da	-0.05495248
75	0xbb276218	-0.0025540646
76	0x3c8ee7ac	0.017444454
77	0xbbed2d07	-0.0072380337
78	0xbcf7be83	-0.03024221
79	0xbcd75648	-0.02628626
80	0x3d178fe9	0.037002478
81	0xbcd382ec	-0.025819264
82	0x3d4c5cc5	0.04989316
83	0x3d611205	0.054948825
84	0xbd11050f	-0.035405215
85	0xbd6cd5d5	-0.057821114
86	0x3c59d775	0.013295998
87	0xbd6177b7	-0.05504581
88	0x3cc2b66a	0.023768622
89	0x3b84c17b	0.004051385
90	0x3d4030cf	0.046921548
91	0x3bc3565f	0.005961224
92	0x3cee2469	0.029070096
93	0xbd6661a9	-0.05624548
94	0x3d3361f8	0.043794602
95	0x3c579132	0.013157176
96	0x3d5d5f1e	0.05404579
97	0x3d446154	0.04794438
98	0xbc43f0a8	-0.011959232
99	0xbce464ff	-0.02788019
100	0xbd61d1f5	-0.05513187
101	0x3c6e314d	0.014538121
102	0x3d48bcff	0.049008366
103	0x3a9394c3	0.0011259544
104	0xbcb91231	-0.022591682
105	0x3c749c27	0.014929808
106	0x3d74eca0	0.059795976
107	0x3d5a1b65	0.05324878
108	0x3c2a5a4b	0.010397504
109	0x3d4c97c2	0.049949415
110	0xbc951a33	-0.01820097
111	0x3c5ae6d2	0.013360696
112	0xbd56c4e3	-0.05243386
113	0xbd2f5e2d	-0.042814422
114	0xbd3f6b1a	-0.046733
115	0x3c853d12	0.016264472
116	0x3c17ef50	0.009273365
117	0x3aaa6757	0.0013000768
118	0x3d3fde6a	0.04684297
119	0x3d15dc32	0.036586948
120	0xbc3335e0	-0.010938138
121	0x3ca83915	0.020535031
122	0xbc9d9184	-0.019234426
123	0x3d240bd7	0.040050354
124	0xbd0a5f10	-0.033782065
125	0xbd189784	-0.03725387
126	0xbd6fb538	-0.058522433
127	0x3cc4ff83	0.024047619
128	0xbbb5e879	-0.0055513945
129	0x3d022c44	0.031780496
130	0xbd354634	-0.044256404
131	0xbbad181f	-0.0052824165
132	0xbc8c4bb8	-0.01712595
133	0xbc0efac2	-0.0087267775
134	0x3d1fd0ac	0.039017364
135	0xbd5fda0c	-0.054651305
136	0x3ca620b2	0.020279262
137	0x3c03c540	0.0080426335
138	0xbb1b6f45	-0.0023717445
139	0xbd3e600f	-0.046478327
140	0x3aeda937	0.0018132095
141	0x3b5b4284	0.0033456394
142	0xbc2d424f	-0.010574891
143	0xbd7f95f4	-0.062398866
144	0x3d0011da	0.031267025
145	0xbc4272d5	-0.011868198
146	0x3d45550a	0.048176803
147	0x3d73c68d	0.059515525
148	0x3cd1dc40	0.025617719
149	0xbb8c338f	-0.004278607
150	0xbd62d7d8	-0.055381626
151	0x3d554944	0.052071825
152	0x3d3bc319	0.045840356
153	0xbd50ef9d	-0.051009763
154	0x3d3ed5e3	0.046590697
155	0xbd4d4a70	-0.050119817
156	0x3cf408ff	0.029789446
157	0xbcd03d2f	-0.0254198
158	0xbcf2a9f4	-0.029622056
159	0xbbbac888	-0.0057001747
160	0x3d1fbf70	0.03900093
161	0xbd32fbd2	-0.043697186
162	0xbcffc6cf	-0.031222729
163	0xbd05b32b	-0.03264157
164	0x3d16a8c9	0.03678206
165	0xbcd6c8a4	-0.02621872
166	0xbbe815a3	-0.0070826574
167	0x3a7c585c	0.00096262037
168	0x3c912a46	0.017720353
169	0xbce47721	-0.027888836
170	0xbd4bee85	-0.049788017
171	0xbc9198b3	-0.017773008
172	0x3d6cbcbd	0.057797182
173	0xbb1463bc	-0.0022642454
174	0xbcc73a6d	-0.024319852
175	0x3d6f9111	0.058487955
176	0x3d3b0cee	0.045666628
177	0x3b3e80e8	0.0029068533
178	0x3b28dc52	0.0025766087
179	0x3d157e6d	0.036497522
180	0x3d6bd392	0.057574816
181	0x3ceeecd3	0.029165661
182	0xbd35ad94	-0.04435499
183	0xbd4dd8ad	-0.050255466
184	0xbce331b5	-0.027733663
185	0x3d617391	0.055041853
186	0x3d617850	0.05504638
187	0x3ccc2114	0.024918117
188	0x3d18f5de	0.037343852
189	0xbc624409	-0.013810166
190	0xbd6d92be	-0.058001272
191	0x3d77f51f	0.0605365
192	0x3d5df684	0.054190174
193	0xbd69dee5	-0.057097334
194	0xbd35a01e	-0.044342153
195	0x3d42a56e	0.047521047
196	0xbd266c2c	-0.040630504
197	0x3cb54ada	0.022130419
198	0x3bf901ec	0.007599106
199	0x3d47961f	0.04872715
200	0xbd70b043	-0.058761846
201	0xbd1e4645	-0.038641233
202	0x3d15f6db	0.036612373
203	0xbcd8ac78	-0.026449427
204	0x3d546021	0.05184949
205	0xbd1cc9d9	-0.038278434
206	0xbb93f61f	-0.004515424
207	0xbcbb4826	-0.022861551
208	0xbd4654f8	-0.048420876
209	0xba3dac0c	-0.0007235415
210	0xbc7f4c39	-0.015582138
211	0x3a69288d	0.0008894287
212	0x3c24ca3a	0.01005798
213	0x3d608f65	0.05482425
214	0xbc056a96	-0.008143088
215	0x3bfd41f5	0.00772881
216	0x3ce3630c	0.02775719
217	0x3cdc0382	0.026857141
218	0x3d8d308b	0.068940245
219	0xbd580164	-0.0527357
220	0xbd6f565c	-0.058431968
221	0x3d0a5a28	0.033777386
222	0x3d3829bc	0.044961676
223	0x3d69ceda	0.057082035
224	0xbc713004	-0.0147209205
225	0x3c599d40	0.01328212
226	0xbcfd0bb5	-0.030889371
227	0x3d04a971	0.032388154
228	0xbd321ed5	-0.043486435
229	0xbcfa5fa2	-0.03056318
230	0x3d2ec7b2	0.042670913
231	0xbc54c1c6	-0.012985652
232	0xbc1298a2	-0.008947523
233	0xbd6efbc2	-0.058345564
234	0x3d586711	0.052832667
235	0xbd77490a	-0.06037239
236	0xbd3c6f32	-0.04600448
237	0x3d6c0c36	0.057628833
238	0xba19c588	-0.0005865921
239	0xbce69b5b	-0.028150251
240	0x3c158fc7	0.0091285175
241	0x3d7b129b	0.06129704
242	0xbd01bc4f	-0.031673726
243	0x3d3dd684	0.046347156
244	0xbd811628	-0.06303054
245	0x3d4b9b84	0.049708858
246	0xbd509413	-0.050922465
247	0xbd1017f3	-0.03517909
248	0xbd4413c1	-0.0478704
249	0xbd3c7366	-0.04600849
250	0xbd16c345	-0.036807317
251	0xbc1e892a	-0.009676257
252	0xbd30fd67	-0.043210413
253	0x3cdf22d2	0.027238283
254	0xbcd842f7	-0.026399119
255	0xbd5a04c6	-0.05322721

net.4.weight f4 [3, 256]
0	0xbd0a8ea3	-0.033827435
1	0x3d546b5b	0.051860195
2	0x3c558867	0.013033009
3	0xbd669e04	-0.05630304
4	0x3d6bcb40	0.05756688
5	0xbd32ccc4	-0.04365231
6	0xbcd99904	-0.026562221
7	0x3afa58a4	0.0019099903
8	0x3b246d24	0.0025089467
9	0xbcd2f549	-0.025751727
10	0xbd839129	-0.064241715
11	0xbd1bb035	-0.03800984
12	0x3d7df6b7	0.062002864
13	0x3d0d4c65	0.034496684
14	0x3d40c866	0.047066115
15	0x3d803fda	0.06262179
16	0x3d20eb8e	0.039287142
17	0x3d84c6c0	0.06483221
18	0xbd61ae0b	-0.05509762
19	0xbdb43624	-0.08799389
20	0x3d24d873	0.040245485
21	0x3d5aefc0	0.0534513
22	0x3d8efdf3	0.06982031
23	0xbcfa771a	-0.03057437
24	0xbc486014	-0.012229938
25	0xbc93c319	-0.018037366
26	0xbd7079df	-0.058709975
27	0x3d02b528	0.031911045
28	0xbbb736dd	-0.005591257
29	0xbd208714	-0.03919132
30	0xbdb3b921	-0.08775545
31	0xbd0dc963	-0.034615885
32	0xbd7c6819	-0.061622713
33	0xbd781903	-0.060570728
34	0x3b9a1e54	0.0047033224
35	0x3d4feca7	0.0507628
36	0xbb39efaf	-0.0028371622
37	0xbb85b3c4	-0.0040802676
38	0x3d110365	0.035403628
39	0xbd49e570	-0.049291074
40	0xbd584098	-0.052795976
41	0xbced500e	-0.028968837
42	0x3becf9da	0.007231933
43	0xbcd1f28a	-0.025628347
44	0xbcd2f1ec	-0.025750123
45	0x3d74f766	0.05980625
46	0xbceedc94	-0.029157914
47	0x3af2d636	0.0018526975
48	0xbb91ce39	-0.0044496325
49	0xbd1996b9	-0.037497256
50	0xbd01b047	-0.03166225
51	0xbd3fcb79	-0.046824906
52	0xbc943409	-0.018091219
53	0x3c9e834b	0.019349715
54	0xbbe5e3f5	-0.0070157
55	0xbda2474f	-0.07923757
56	0xbd735619	-0.05940828
57	0x3cda6fff	0.026664732
58	0xbbed4be9	-0.007241715
59	0x3c87552a	0.016520102
60	0xbd36c75e	-0.044623725
61	0x3d0f3153	0.03495915
62	0x3d48510a	0.04890541
63	0xbabc4647	-0.0014364206
64	0xbd0caa3c	-0.034342036
65	0x3d92b508	0.07163435
66	0x3d2f806f	0.042847093
67	0x3d2852a8	0.041094452
68	0xbd790967	-0.060799982
69	0xbd39ac3e	-0.04533028
70	0xbd8563ff	-0.06513213
71	0xbcde751b	-0.02715545
72	0x3ce4cd61	0.027929964
73	0xbdb5a615	-0.08869568
74	0xbce55a86	-0.027997267
75	0x3cbeac91	0.023275645
76	0xbd81edd6	-0.06344192
77	0xbdcf6cb4	-0.10128155
78	0x3ced990e	0.029003646
79	0xbcbfcd84	-0.023413427
80	0xbd6db0e0	-0.05803001
81	0xbd4f295d	-0.050576556
82	0xbc42ddd0	-0.0118937045
83	0x3ce526f0	0.027972668
84	0xbd487f41	-0.048949484
85	0x3d5fef81	0.054671768
86	0x3d6a7a8d	0.05724578
87	0x3c5e3185	0.013561611
88	0x3cbf64d7	0.023363514
89	0xbd4538f5	-0.04815002
90	0x3c703303	0.0146606
91	0x3b4de4e5	0.003141695
92	0x3d8ca0d9	0.06866617
93	0x3c950cef	0.018194644
94	0xb8760a27	-5.8660426e-05
95	0xbcd82798	-0.026386067
96	0x3d61c663	0.055120837
97	0xbd8224d1	-0.063546784
98	0xbcee980c	-0.029125236
99	0xbc37694a	-0.011194536
100	0x3d4e99ef	0.05043977
101	0x3d7bd411	0.06148154
102	0x3d26d625	0.040731568
103	0xbd94de83	-0.07269003
104	0x3d80eb12	0.06294836
105	0x3d8e0e8c	0.06936368
106	0xbd881ac1	-0.06645728
107	0xbd5e3c88	-0.054256946
108	0x3c535155	0.012897809
109	0xbd8a0bdb	-0.067405425
110	0xbd9998ca	-0.07499845
111	0x3cc59191	0.024117263
112	0xbd9d0242	-0.07666446
113	0xbcd171fb	-0.025567045
114	0xbd9bf962	-0.07615925
115	0xbbc7af63	-0.006093906
116	0x3d3e1735	0.04640885
117	0xbcfcf4e4	-0.030878492
118	0xbcb8b055	-0.02254502
119	0xbb7b86fd	-0.003838002
120	0xbb5e64ae	-0.0033934521
121	0xbd1f13f6	-0.038837396
122	0x3840b212	4.5942208e-05
123	0xbc542578	-0.012948386
124	0x3d2d3322	0.042285092
125	0xbd9db506	-0.07700543
126	0xbd937ac6	-0.072011515
127	0xbc8c4c90	-0.017126352
128	0x3c8f70d3	0.017509853
129	0xbcbd86dc	-0.023135595
130	0xbcef7a36	-0.02923308
131	0xbd4416cc	-0.047873303
132	0xbd897955	-0.067125954
133	0xbd4212aa	-0.04738108
134	0x3d2936aa	0.041311897
135	0x3d149477	0.0362744
136	0x3d5e990c	0.054345176
137	0xbd6f2edf	-0.05839431
138	0x3d96eb71	0.07369126
139	0xbda19abf	-0.078908436
140	0x3d240f18	0.040053457
141	0x3d67ea8e	0.056620173
142	0xbd30a403	-0.043125164
143	0x3c9a8fc9	0.01886739
144	0x3cd7aba6	0.026326966
145	0x3d2a9e2c	0.04165475
146	0x3d6a2c63	0.057171237
147	0xbcd01774	-0.025401808
148	0x3d4ec256	0.050478302
149	0x3d80b366	0.062842175
150	0x3d51993d	0.05117153
151	0x3c81ad79	0.015829789
152	0x3cfceb64	0.030873962
153	0x3adda414	0.0016909861
154	0x3d8087f7	0.06275933
155	0x3d75750b	0.059926074
156	0xbd50b3f9	-0.050952885
157	0xbd906226	-0.0704997
158	0xbcf6a2b7	-0.030106885
159	0xbd27f4fe	-0.041005127
160	0xbd821b14	-0.06352821
161	0xbd0a7691	-0.03380448
162	0x3d7f8395	0.062381346
163	0xbc9d0eb3	-0.019172048
164	0xbc5c8c2f	-0.013461157
165	0x3d59ebed	0.053203512
166	0xbd6df96a	-0.058099188
167	0xbca1d0a9	-0.019752817
168	0x3d75f1ce	0.060045056
169	0x3d802652	0.06257309
170	0x3d686aea	0.056742586
171	0xbd78e366	-0.06076374
172	0xbda4dd67	-0.08050042
173	0x3c4f082e	0.0126362275
174	0x3c8565d7	0.016283913
175	0xbd556adf	-0.052103873
176	0xbd270b63	-0.040782344
177	0x3c782244	0.015144888
178	0xbc4c178f	-0.012456789
179	0x3b3c8a78	0.0028769057
180	0xba8ef881	-0.00109078
181	0xbca3930b	-0.019967576
182	0xbb1ae34d	-0.0023634017
183	0x3d0f58d4	0.034996822
184	0x3c75f887	0.015012867
185	0xbd991d48	-0.07476288
186	0x3c4ffbb4	0.012694288
187	0xbd58e266	-0.052950285
188	0xbdfbd6a4	-0.12296799
189	0xbd89c6cf	-0.06727373
190	0x3a9e51f4	0.0012078867
191	0x3d9c13f9	0.07620997
192	0x3d3949a5	0.04523625
193	0x3cf6e99b	0.030140689
194	0xbc2e2c2f	-0.010630651
195	0x3c6b82df	0.014374464
196	0xbc0d1af7	-0.008612386
197	0x3d6ff169	0.058579836
198	0x3cc88276	0.024476271
199	0x3c617b36	0.013762286
200	0x3d0c2f78	0.034224957
201	0xbd2e140b	-0.042499583
202	0x3cc3e701	0.023913862
203	0x3bd6d979	0.0065566865
204	0xbd8d4273	-0.0689744
205	0xbcbd9c52	-0.023145828
206	0xbdd8b164	-0.105807096
207	0xbad9177a	-0.0016562783
208	0xbdb88d24	-0.090112954
209	0x3d2f23ff	0.042758938
210	0x3cd6a0cc	0.02619972
211	0xbd9323c0	-0.07184553
212	0x3c80fc8d	0.015745426
213	0x3d1b0948	0.03785065
214	0xbd8b16ca	-0.06791456
215	0xbd253cca	-0.040341176
216	0xbd6b7dec	-0.057493135
217	0xbd83a7cf	-0.06428491
218	0xbdb99fe6	-0.09063701
219	0x3bdc15e5	0.006716477
220	0x3c5470ca	0.012966344
221	0x3ab4baac	0.0013788543
222	0x3d740e48	0.059583932
223	0xbc7ce31e	-0.015435008
224	0xbd3c509a	-0.045975305
225	0xbcc8e93d	-0.02452528
226	0xbd15b717	-0.03655156
227	0xbcc826b1	-0.024432512
228	0xbd22cb96	-0.039744936
229	0xbd26717e	-0.04063558
230	0x3d66adea	0.0563182
231	0xbd2fb34b	-0.042895596
232	0xbd5c9ba2	-0.05385936
233	0x3d134d1c	0.03596221
234	0x3d157651	0.03648979
235	0xbd0ae9a5	-0.033914227
236	0x3d53140e	0.051532798
237	0x3d8bb973	0.06822481
238	0x3c9d3e65	0.019194791
239	0x3bef4f94	0.0073031876
240	0xbd27f27b	-0.04100273
241	0x3d412e25	0.047163147
242	0x3b872000	0.0041236877
243	0x3c15a97e	0.009134648
244	0xbc6bc2f5	-0.014389743
245	0xbc2cad88	-0.01053942
246	0x3bb20e2c	0.0054338183
247	0x3d179c02	0.037014015
248	0x3d4c26e6	0.049841784
249	0x3ccda434	0.025102712
250	0x3d62b4ad	0.055348087
251	0x3d1b17c7	0.037864473
252	0x3c9d6c0a	0.019216556
253	0x3d00accb	0.03141479
254	0x3d3b936a	0.045794882
255	0xbd0fb01c	-0.03508006

net.4.bias f4 [3]
0	0xbd5267c3	-0.051368486
1	0x3d657275	0.056017358
2	0xbd56d97e	-0.05245351
