models/downstream_head.pth (torch, 533109 bytes, 6 tensors)

net.0.weight f4 [256, 256]
0	0x3d6406fe	0.05567073
1	0x3d6debe4	0.05808629
2	0xbc767ea4	-0.015044842
3	0x3d769639	0.060201857
4	0xbc99557e	-0.018717524
5	0x3c97ad44	0.018515237
6	0xbd17537e	-0.03694486
7	0x3d3b37de	0.045707576
8	0x3d626398	0.05527076
9	0xbd5e6488	-0.054295093
10	0x3d6d2cb6	0.057903968
11	0x3c92074c	0.017825745
12	0x3d6302e4	0.05542268
13	0x3c821138	0.015877351
14	0x3d017ba7	0.031612065
15	0xbc8a5b99	-0.01688938
16	0x3d65249a	0.05594311
17	0x3c85d196	0.01633529
18	0xbd0863cc	-0.0332983
19	0x3c5d9751	0.013524846
20	0xbd07bf7e	-0.033141606
21	0xbbfcb852	-0.0077124024
22	0xbcdcf710	-0.026973277
23	0x3d558168	0.052125365
24	0xbd6d1998	-0.057885736
25	0xbccb5c62	-0.024824325
26	0xbc5f6f61	-0.013637395
27	0xbd3e085e	-0.0463947
28	0x3c0bdae3	0.008536073
29	0xbd894b42	-0.067038074
30	0x3d85e5d3	0.06537976
31	0xbd7182e9	-0.058962736
32	0x3d44e8e3	0.04807366
33	0x3c8a433a	0.01687776
34	0xbcd883ac	-0.026429974
35	0x3d3b7522	0.045766003
36	0x3c5fa233	0.013649511
37	0x3d7513ce	0.05983334
38	0x3c779557	0.015111289
39	0xbc983634	-0.018580534
40	0x3caad455	0.0208532
41	0xbccadd33	-0.02476368
42	0x3d0caca0	0.034344316
43	0x3d79295e	0.060830466
44	0x3d2a56fa	0.041586854
45	0xbd0bcc26	-0.034130238
46	0x3d367676	0.044546567
47	0x3c221574	0.00989281
48	0x3d21f2d7	0.03953823
49	0xbd3af878	-0.045647115
50	0xbd88fa75	-0.06688396
51	0xbcf1f615	-0.029536286
52	0xbd4098cb	-0.047020715
53	0x3d713088	0.058884174
54	0x3c51bc87	0.012801296
55	0x3cc898a9	0.024486857
56	0x3ce0c568	0.02743788
57	0xbbfcc1c0	-0.0077135265
58	0x3d50582e	0.050865345
59	0xbd32e145	-0.043671865
60	0x3b9f549d	0.0048623816
61	0xbd4eafe9	-0.05046073
62	0x3c88f968	0.016720489
63	0xbcc6e2e8	-0.02427812
64	0x3cf3e095	0.029770175
65	0xbc2a0d9b	-0.01037922
66	0x3d6009fa	0.054697014
67	0xbd39a1a1	-0.045320157
68	0xbd35bb35	-0.044367988
69	0xbd1b4873	-0.03791089
70	0x3d84a96a	0.06477626
71	0x3cebab5b	0.028768232
72	0x3d89d943	0.067308925
73	0xbd72d5f8	-0.059286088
74	0xbd8d3649	-0.0689512
75	0xbd6136f0	-0.054984033
76	0xbd444310	-0.04791552
77	0x3d07aacc	0.03312187
78	0x3cf98065	0.030456731
79	0x3d721358	0.05910048
80	0xbd21783b	-0.0394213
81	0xbd5655ed	-0.05232804
82	0x3d1dd39d	0.03853189
83	0xbcfa7320	-0.030572474
84	0x3d41ef46	0.04734733
85	0xbcac6a55	-0.021046797
86	0x3d3b10ab	0.045670193
87	0xbd510150	-0.051026642
88	0xbcfa1a7d	-0.030530209
89	0x3ceacf0f	0.028663186
90	0x3bfd1b80	0.0077242255
91	0xbc705e0a	-0.014670858
92	0x3d45529b	0.04817448
93	0x3d323148	0.04350403
94	0xbd5ad789	-0.053428207
95	0xbd26ef91	-0.040755812
96	0x3d890348	0.06690079
97	0xbcf37f39	-0.02972375
98	0xbca2c107	-0.019867433
99	0xbd85b312	-0.065282956
100	0xbd3cce3d	-0.04609512
101	0x3cbc13fc	0.022958748
102	0xbc1353c6	-0.008992141
103	0xbd3effda	-0.046630718
104	0x3bf51855	0.0074797072
105	0xbd4ce88d	-0.050026465
106	0xbd769772	-0.060203023
107	0xbd0510a0	-0.032486558
108	0xbd83b115	-0.0643026
109	0xbd15f36a	-0.03660909
110	0x3d8f307e	0.06991671
111	0x3c1c0871	0.009523497
112	0x3c912df6	0.017722111
113	0xbd852eb6	-0.0650305
114	0xbd5c5466	-0.053791426
115	0xbcdf0025	-0.027221749
116	0x3c5e45e4	0.013566468
117	0xbd7f2d27	-0.06229892
118	0xbd0ae8f9	-0.033913586
119	0xbd3a9f00	-0.04556179
120	0xbb0bc5d4	-0.0021327632
121	0xbcf2561c	-0.029582076
122	0xbc2288e3	-0.009920332
123	0xbd364953	-0.04450352
124	0xbd529786	-0.051414035
125	0xbd3094a4	-0.043110505
126	0xbcf9395c	-0.030422859
127	0xbd717860	-0.05895269
128	0x3d78925b	0.06068645
129	0xbc9f066a	-0.019412238
130	0x3d7b6201	0.06137276
131	0x3cd1cc3e	0.025610086
132	0xbd7d3de6	-0.06182661
133	0x3d2bd476	0.041950665
134	0xbccbf12a	-0.02489527
135	0xbd023eb6	-0.031798087
136	0xbd696fb6	-0.0569913
137	0xbd8b21a2	-0.06793524
138	0x3cce8495	0.025209704
139	0xbc8c61a1	-0.017136397
140	0x3d0601c7	0.03271654
141	0xbd72ed7f	-0.059308525
142	0x3d607105	0.054795284
143	0xbd5e9c88	-0.0543485
144	0xbc9d2daf	-0.019186823
145	0x3c611423	0.013737711
146	0x3d14c869	0.03632394
147	0x3d6ca3b6	0.057773314
148	0x3d802087	0.06256204
149	0xbd47a7e1	-0.048744086
150	0x3c4699d3	0.0121216355
151	0xbd10c2a3	-0.03534187
152	0xbad63b43	-0.0016344566
153	0xbd5e48e8	-0.054268748
154	0x3d752d98	0.059857935
155	0xbd5c926d	-0.05385058
156	0x3d0e8804	0.034797683
157	0x3cee263d	0.029070968
158	0x3ce9fc1b	0.028562596
159	0xbd2761c5	-0.040864725
160	0x3d6c164e	0.05763846
161	0x3c8f77f3	0.017513251
162	0x3c6916a0	0.014226586
163	0xbd75b34a	-0.059985436
164	0x3d066f7e	0.03282117
165	0xbc1e8bbc	-0.00967687
166	0xbce953f4	-0.028482415
167	0x3d80b627	0.06284743
168	0x3c55f225	0.01305822
169	0xbd33465f	-0.043768283
170	0xbd1f2712	-0.03885562
171	0x38cd8b27	9.801081e-05
172	0x3d2fc65a	0.042913772
173	0xbc8c2845	-0.017109046
174	0xbd365269	-0.044512186
175	0xbce6c8f9	-0.028172003
176	0xbd603a5e	-0.054743163
177	0x3cde583d	0.027141685
178	0x3d62f53a	0.055409648
179	0xbd8966fe	-0.06709097
180	0x3c30b79d	0.010785964
181	0x3d04265f	0.032263156
182	0x3c2b873c	0.010469254
183	0xbcf57a72	-0.029965613
184	0x3d128d9a	0.035779573
185	0x3d2956bf	0.041342493
186	0x3d03f962	0.03222025
187	0xbc954524	-0.018221445
188	0xbcc7beba	-0.024382938
189	0x3c554e2a	0.013019124
190	0xbbbb4eb4	-0.0057161693
191	0xbcce0d8a	-0.02515294
192	0x3d15dfd3	0.03659041
193	0x3d7c9b3e	0.061671488
194	0xb9568d8f	-0.00020461365
195	0xbc542db8	-0.012950353
196	0x3c02d18e	0.007984532
197	0x3aa136c3	0.0012299645
198	0x3c904d4b	0.017614981
199	0x3ca92482	0.020647291
200	0xbd84086c	-0.06446919
201	0xbcf7647d	-0.030199284
202	0x3d6171af	0.055040058
203	0x3d038831	0.032112304
204	0xbc01e835	-0.007928898
205	0xbd271c51	-0.04079849
206	0xbd3ea7e0	-0.046546817
207	0xbd7cd641	-0.061727766
208	0xbce0a327	-0.027421547
209	0x3cce98b0	0.025219291
210	0x3d45f983	0.048333656
211	0x3d1876f9	0.037222836
212	0xbd610831	-0.054939453
213	0xbd395899	-0.04525051
214	0xbb61cdf8	-0.0034455042
215	0x3d8876a9	0.06663258
216	0x3b013a11	0.0019718448
217	0xbcd02f16	-0.025413077
218	0x3cb96611	0.022631677
219	0xbce9ddfb	-0.028548231
220	0xbd452a77	-0.0481362
221	0x3d57b929	0.052666817
222	0xbd16315c	-0.036668167
223	0xbcad7b0d	-0.02117684
224	0xbd86220e	-0.06549464
225	0x3d3e05b1	0.046392146
226	0x3d65b77d	0.05608319
227	0x3cc26110	0.023727924
228	0xbd597127	-0.053086426
229	0xbd8eba26	-0.06969099
230	0xbd6ec665	-0.058294673
231	0x3d53d872	0.05172009
232	0x3cd1421e	0.025544222
233	0x3d6dfd17	0.058102693
234	0x3d35aa82	0.044352062
235	0x3cc2bb1a	0.023770858
236	0xbbd86c05	-0.006604674
237	0xbd560bd0	-0.05225736
238	0xbd74de27	-0.059782173
239	0xbd86acf1	-0.06575955
240	0x3d0ee825	0.03488936
241	0xbd1e9e18	-0.03872499
242	0xbca33482	-0.019922499
243	0xbd34bcaa	-0.044125237
244	0xbc2be450	-0.010491446
245	0xbd58254b	-0.05276994
246	0xbd31a171	-0.043366853
247	0x3c8f35eb	0.017481765
248	0xbcd304e6	-0.025759172
249	0x3d3c57c8	0.045982152
250	0xbd0672d8	-0.032824367
251	0xbd58a65a	-0.05289302
252	0xbb5fe681	-0.003416449
253	0xbd188ac3	-0.03724171
254	0xbc8c0625	-0.017092774
255	0xbd8971fe	-0.067111954

net.0.bias f4 [256]
0	0x3cc7c03a	0.024383653
1	0x3d568619	0.05237398
2	0x3d45a488	0.048252612
3	0x3ca64fc8	0.020301715
4	0xbd1ff388	-0.03905061
5	0x3c3694f3	0.011143911
6	0x3ced13f0	0.028940171
7	0xbd473097	-0.048630323
8	0xbd0b91f2	-0.03407473
9	0x3d774eea	0.060377993
10	0x3bd0887d	0.006363927
11	0x3bcbe11c	0.0062219035
12	0x3ba9d138	0.0051824115
13	0x3cb1c00f	0.021698026
14	0x39b40a03	0.00034339735
15	0xbcf23ba7	-0.02956946
16	0xbc201470	-0.009770498
17	0x3b8acbe8	0.0042357333
18	0x3c0b66a3	0.008508357
19	0x3cb89fd1	0.022537144
20	0x3c31d4c8	0.010853954
21	0xbc54406c	-0.0129548125
22	0x3d12cbd0	0.035838902
23	0xbc24315e	-0.010021536
24	0x3d3aa818	0.045570463
25	0xbd3837c5	-0.04497506
26	0xbd11f223	-0.03563131
27	0xbd6a957a	-0.05727146
28	0xbafd5f01	-0.0019330682
29	0xbd6c5b82	-0.057704456
30	0x3d357611	0.04430205
31	0x3d0196c2	0.031637914
32	0xbca4adb9	-0.020102369
33	0x3d007d9d	0.031369794
34	0x3d4ee5a8	0.050511986
35	0xbd75541d	-0.05989467
36	0x3cf4d8e9	0.029888587
37	0xbd5f1c39	-0.054470275
38	0x3d23d942	0.040002115
39	0x3d45d2c0	0.04829669
40	0x3d1aac01	0.037761692
41	0xbc0b17f3	-0.008489597
42	0x3c1da621	0.009622128
43	0xbd3883ea	-0.045047678
44	0x3d020d4c	0.031750962
45	0xbd55af33	-0.052169036
46	0xbceb3a03	-0.028714186
47	0xbc5e5155	-0.013569196
48	0x3cd4ccdd	0.025976593
49	0x3ba0edac	0.004911145
50	0xbc75b499	-0.014996671
51	0xbc6b799d	-0.014372257
52	0x3cba54f8	0.022745594
53	0x3d0bfdf7	0.034177747
54	0x3ca7a176	0.020462733
55	0xbd3b6315	-0.04574879
56	0xbd0a9ac0	-0.033838987
57	0x3d60318a	0.054734744
58	0xbcf792bd	-0.030221337
59	0xbca0804b	-0.019592425
60	0x3d3f6d06	0.046734832
61	0x3cd42ad0	0.02589932
62	0xbd0127db	-0.03153215
63	0x3d34f338	0.044177264
64	0x3bf00e20	0.0073259026
65	0xbbd6c393	-0.006554076
66	0xbc2ad6f4	-0.010427225
67	0x3b61a3cb	0.0034429904
68	0xbbd35c30	-0.0064501986
69	0xbd145b37	-0.0362198
70	0xbd5cd69d	-0.05391561
71	0xbd0f31bc	-0.03495954
72	0x3d7d9b8a	0.06191591
73	0x3d644c3c	0.055736765
74	0x3ccf9f5f	0.025344549
75	0x3caa4f15	0.020789662
76	0x3d62aac0	0.05533862
77	0x3d63138c	0.055438563
78	0x3d05bbc6	0.032649778
79	0x3b9474ae	0.004530511
80	0x3cc60327	0.024171425
81	0xbcf8392d	-0.030300701
82	0x3d128b7e	0.03577756
83	0x3d5c6969	0.053811464
84	0x3ca04df5	0.019568423
85	0xbd024f9e	-0.03181421
86	0x3c9fa95b	0.019489935
87	0x3d5cf704	0.05394651
88	0x3b1dcf2c	0.0024079783
89	0x3cc0c3e1	0.023530902
90	0x3c7ae738	0.015313916
91	0x3ce2bf2e	0.027679052
92	0x3cd67afc	0.02618169
93	0x3c179a06	0.009253031
94	0xbd74bc9f	-0.059750196
95	0x3d5b88dc	0.053597316
96	0xbd4d13f3	-0.050067853
97	0xbd4a025d	-0.04931866
98	0x3d787e0f	0.060667094
99	0xbc4c2bd9	-0.012461626
100	0xbd6e69ef	-0.058206495
101	0x3d5bdd75	0.053677995
102	0xbc06b685	-0.008222227
103	0x3d525782	0.051352985
104	0x3d613d5f	0.05499017
105	0xbd667ec3	-0.056273233
106	0xbd4d1aac	-0.050074264
107	0x3bb05510	0.005381234
108	0xbc636e23	-0.013881239
109	0xbd6adf98	-0.057342142
110	0xbd057266	-0.032579802
111	0x3d3f546a	0.046711363
112	0x3ce738dd	0.028225357
113	0x3ce330c0	0.027733207
114	0x3ce14baa	0.0275019
115	0x3d0ebe4a	0.034849443
116	0x3d432a47	0.04764774
117	0xbaa321d7	-0.0012445998
118	0xbbb52f48	-0.005529318
119	0x3d826d01	0.06368447
120	0x3b928699	0.0044716117
121	0xbb3efd07	-0.0029142515
122	0x3d748da5	0.059705395
123	0x3d1048c5	0.03522565
124	0x3bea3e51	0.007148542
125	0x3d1e072c	0.03858106
126	0x3d7187ff	0.058967587
127	0x3b739148	0.0037165452
128	0xbcd4555c	-0.025919609
129	0x3cb721ec	0.022355042
130	0x3d6416eb	0.05568592
131	0xbd00c269	-0.031435404
132	0xbd26bc07	-0.04070666
133	0xbc8e5994	-0.017376699
134	0x3c6ea627	0.014565981
135	0xbd3c1a28	-0.045923382
136	0xbcff8304	-0.031190403
137	0x3be6c3f4	0.0070424024
138	0x3d61d289	0.055132423
139	0x3d0bbc43	0.034115087
140	0x3d26b858	0.040703148
141	0x3cc299b1	0.023754926
142	0x3c814d92	0.015784059
143	0x3d6f3cec	0.05840771
144	0xbcb33e0f	-0.021880178
145	0xbb909bf0	-0.0044131204
146	0x3c8c1a11	0.017102273
147	0x3c31604a	0.01082618
148	0x3b53fcc7	0.0032346712
149	0xbce3503d	-0.027748222
150	0x3d7303fa	0.059329964
151	0x3d26ba53	0.040705036
152	0xbd425815	-0.047447283
153	0x3c4f9828	0.012670554
154	0xbd4f48f9	-0.0506067
155	0x3d603023	0.054733407
156	0x3c9a89bf	0.01886451
157	0x3d1c76e2	0.038199313
158	0x3d8965a7	0.06708842
159	0x3d4097a2	0.04701961
160	0x3d26421f	0.0405904
161	0xbc8bca9c	-0.017064385
162	0xbc213e44	-0.009841505
163	0x3d34bbdc	0.04412447
164	0x3d3ca1fe	0.046052925
165	0xbc354fce	-0.01106639
166	0x3d7cb04b	0.061691564
167	0x3d51b4c9	0.0511978
168	0x3d65dd96	0.056119524
169	0xbb84a74d	-0.004048264
170	0xbb5094f8	-0.0031827074
171	0xbd17b2fb	-0.037035923
172	0xbd54beca	-0.051939763
173	0xbbe820fd	-0.0070840106
174	0x3c8c5f42	0.017135266
175	0xbd42722e	-0.04747217
176	0x3ca188ed	0.019718612
177	0xbd5d15dd	-0.05397593
178	0xbd70d7ed	-0.058799673
179	0x3d811c1a	0.06304188
180	0xbd2a93cc	-0.041644856
181	0xbae13a8a	-0.0017183584
182	0xbc615985	-0.013754253
183	0x3cc48c7a	0.023992766
184	0x3c3c3e2f	0.011489435
185	0xbcba59c2	-0.022747878
186	0xbd12b288	-0.035814792
187	0xbd371da9	-0.04470602
188	0xbc6995bd	-0.014256892
189	0x3d0e36c5	0.0347202
190	0xbb9af8df	-0.004729375
191	0xbd35e992	-0.044412203
192	0x3cb78590	0.022402555
193	0xbd6f44b8	-0.058415145
194	0xbd662e55	-0.05619653
195	0x3d2b2214	0.041780546
196	0xbd5423c4	-0.05179192
197	0xbafa8b6d	-0.0019115038
198	0xbd1cc7c1	-0.038276438
199	0x3d4f783e	0.05065178
200	0xbcfece05	-0.031104097
201	0xbd721284	-0.05909969
202	0x3d465e27	0.048429634
203	0x3c488a88	0.01224006
204	0xbd35b864	-0.0443653
205	0x3d2767f0	0.040870607
206	0xbd3c4531	-0.045964424
207	0x3cbba3bd	0.022905225
208	0xbce88df5	-0.028388003
209	0x3d0f160f	0.034933146
210	0x3d313903	0.04326726
211	0xbba8c3df	-0.005150303
212	0x3d7b694c	0.061379716
213	0x3bdf877e	0.006821572
214	0x3bd51bb1	0.006503545
215	0x3d681d1e	0.056668393
216	0x3d29f591	0.041493956
217	0xbcc27179	-0.023735749
218	0x3cdee4e4	0.027208753
219	0xbcfe215a	-0.031021763
220	0xb9db4983	-0.00041825706
221	0xbd3b17a8	-0.045676857
222	0x3d395634	0.045248225
223	0xbd754180	-0.05987692
224	0xbc0059fb	-0.007833953
225	0x3d2b0fe4	0.0417632
226	0xbc773b06	-0.015089756
227	0x3d8781e1	0.06616569
228	0x3ccfb06b	0.025352677
229	0x3b9561f6	0.004558797
230	0x3d21fe2a	0.03954903
231	0xbd2599dd	-0.04042994
232	0x3d2a49f6	0.04157444
233	0xbd52b10b	-0.051438373
234	0x3c973c68	0.018461421
235	0xbb8dc60f	-0.004326589
236	0x3d60e8cd	0.054909516
237	0xbb9899d6	-0.0046570105
238	0x3c89a089	0.016800182
239	0xbd793089	-0.060837302
240	0x3d1f07cd	0.0388258
241	0xbd5c7e38	-0.05383131
242	0x3d2c1434	0.042011455
243	0x3cc3082f	0.023807613
244	0x3d580080	0.05273485
245	0x3d7e563c	0.06209396
246	0x3c02d902	0.007986309
247	0xbd4b6d0f	-0.049664553
248	0x3d6b1e8d	0.057402182
249	0xbcf32139	-0.029678928
250	0xbd3f303e	-0.046676867
251	0x3d1a5b9b	0.037685018
252	0xbcf87da0	-0.03033334
253	0x3d54750b	0.051869433
254	0x3d2cc94a	0.04218415
255	0xbc85fdcb	-0.01635637

net.2.weight f4 [256, 256]
0	0x3b265af7	0.002538381
1	0xbc33c53e	-0.010972319
2	0xbbbda6a6	-0.0057876883
3	0xbd77709e	-0.060410134
4	0xbc3e093b	-0.01159888
5	0x3d97f759	0.07420225
6	0x3d4222ef	0.047396597
7	0x3c99be47	0.01876749
8	0xbd422e05	-0.04740717
9	0x3ce22c92	0.027609143
10	0x3b83b058	0.0040188245
11	0xbca3c029	-0.01998909
12	0x3cdaf0ac	0.02672609
13	0xbca2664e	-0.019824173
14	0xbb263dad	-0.0025366351
15	0xbb63c611	-0.0034755508
16	0xbd3f6018	-0.0467225
17	0x3d1f4a14	0.038889006
18	0x3b0e6bd2	0.0021731746
19	0x3d3fb6e2	0.04680527
20	0xbcad6966	-0.021168422
21	0x3b71474d	0.003681618
22	0xbd0cc1a3	-0.034364354
23	0x3d29cd9a	0.041455843
24	0xbc550d57	-0.013003669
25	0x3bef0f0b	0.0072954944
26	0x3d81bc1e	0.06334709
27	0xbd7edadb	-0.062220436
28	0xbcd905b1	-0.026491972
29	0x3ce83936	0.028347593
30	0xbc706dae	-0.014674587
31	0xbc6a4f59	-0.0143011445
32	0xbd8c69b9	-0.068561025
33	0x3d802eca	0.06258924
34	0x3cfe2942	0.031025533
35	0xba4a1140	-0.0007708259
36	0x3c78d4b3	0.01518743
37	0x3d42a9bc	0.047525153
38	0x3d507719	0.05089483
39	0xbd2a0e57	-0.04151758
40	0xbd100a54	-0.0351661
41	0xbd1816e2	-0.037131198
42	0xbd1ecd23	-0.038769852
43	0x3d1d1e8c	0.03835921
44	0xbd8014c6	-0.06253962
45	0x3d5df05b	0.0541843
46	0x3d69dae1	0.057093505
47	0xbd56c9bf	-0.052438494
48	0x3d454441	0.048160795
49	0x3d236c5f	0.039898273
50	0xbd7a33b5	-0.061084468
51	0xbc10fed3	-0.008849817
52	0x3d1b2e0a	0.037885703
53	0x3c725a30	0.01479201
54	0xbca449f5	-0.020054797
55	0xbba60d25	-0.005067485
56	0x3d2f3243	0.042772543
57	0xbd30d43b	-0.04317115
58	0xbbc3c2b7	-0.0059741396
59	0xbc42f732	-0.011899756
60	0x3c722a6e	0.014780624
61	0xba5a5d9f	-0.00083299907
62	0xbd307493	-0.043079924
63	0xbb3dc595	-0.002895688
64	0x3bde7378	0.0067886673
65	0x3c7ae5dc	0.015313592
66	0xbd1c004e	-0.038086228
67	0xbd4a14c2	-0.049336202
68	0xbd3fd37f	-0.046832558
69	0x3d2e76e7	0.042593863
70	0x3cdcaa77	0.026936753
71	0xbc0add39	-0.008475595
72	0xbc7845bf	-0.0151533475
73	0xbd0d675a	-0.03452239
74	0xbcdea45d	-0.027177984
75	0xbbf7abca	-0.0075583206
76	0xbd35456e	-0.044255666
77	0xb98b95a2	-0.0002662363
78	0xbd1c0989	-0.03809503
79	0x3d4195dd	0.04726206
80	0x3cbdb351	0.023156794
81	0x3c7c6736	0.015405467
82	0x3bdc6f80	0.006727159
83	0x3cb2fc3f	0.021848796
84	0x3d258cb1	0.040417377
85	0x3cd43745	0.02590526
86	0xbd063a08	-0.032770187
87	0x3c8ccdbe	0.01718795
88	0x3d6a9b7d	0.05727719
89	0x3d045db8	0.03231594
90	0xbd8126f5	-0.063062586
91	0x3c22baaf	0.009932204
92	0xbd44f3f5	-0.048084218
93	0x3d57f0aa	0.05271975
94	0x3c9f9d54	0.0194842
95	0xbcc776d9	-0.024348663
96	0x3d5c2143	0.05374266
97	0x3d115160	0.035477996
98	0x3cec39f7	0.028836234
99	0x3d864269	0.065556355
100	0x3c8ee6ab	0.017443975
101	0xbc2a56bf	-0.010396658
102	0xbd805ac9	-0.06267316
103	0xbd3b7c01	-0.045772556
104	0x3ce3769e	0.027766522
105	0x3d3d98e7	0.046288397
106	0x3c4e91f4	0.01260804
107	0xbd19b419	-0.03752527
108	0xbcdf4da4	-0.027258702
109	0xbd7378a2	-0.059441216
110	0xbb3ad8ab	-0.0028510492
111	0x3b876189	0.0041315
112	0xbd5abfcf	-0.05340558
113	0x3cf2e174	0.02964852
114	0x3cfca445	0.030840049
115	0x3ca89ffd	0.0205841
116	0xbd2c44ec	-0.042057917
117	0x3c8e0bce	0.017339613
118	0x3d430a0c	0.047617003
119	0xbbb106f1	-0.005402439
120	0x3c7938a1	0.015211255
121	0x3d2c58d4	0.0420769
122	0x3bbee775	0.0058259317
123	0x3d832e26	0.064052865
124	0x3d4709fe	0.048593514
125	0x3b7926b6	0.0038017458
126	0xbc3ab346	-0.011395281
127	0x3c1b19ec	0.0094666295
128	0x3d43b09a	0.047775842
129	0xbc3e6f29	-0.011623182
130	0xbd5ac7f7	-0.053413358
131	0xbd0cf031	-0.034408752
132	0xbd98e561	-0.074656256
133	0x3cada9af	0.021199076
134	0xbcaab932	-0.020840261
135	0xbc5fe5da	-0.013665641
136	0xbd651e2c	-0.055936977
137	0x3c9ecca5	0.019384691
138	0xbc84cd93	-0.016211307
139	0x3d711fda	0.058868267
140	0xbc15f363	-0.009152266
141	0xbd08d897	-0.03340968
142	0xbd4b4037	-0.049621787
143	0xbcd3de44	-0.02586282
144	0xbb860298	-0.0040896647
145	0xbd6ec313	-0.058291506
146	0x3c75c0ea	0.014999608
147	0xbd2c9cf6	-0.042141877
148	0xbcd8e631	-0.026476951
149	0x3cc5a69d	0.024127299
150	0x3d759d79	0.05996463
151	0xbcad5534	-0.021158792
152	0xbd1bbfd2	-0.03802473
153	0xbd128700	-0.035773277
154	0xbd2bf10e	-0.041977935
155	0x3c4d73fd	0.012539861
156	0xbd43cc4a	-0.047802247
157	0x3bfd097c	0.007722078
158	0x3d828be0	0.06374335
159	0xbcf70156	-0.030152004
160	0x3cbbe7c8	0.02293767
161	0x3d8d08ab	0.06886419
162	0xbd2efca8	-0.04272142
163	0x3d537d74	0.051633313
164	0x3c552ead	0.013011617
165	0xbd515db4	-0.051114753
166	0x3d51f57f	0.051259514
167	0xbc80cee2	-0.01572365
168	0x3b65ba74	0.0035053762
169	0xbcdc5bcb	-0.026899239
170	0x3d429b90	0.047511637
171	0x3b2bd81a	0.0026221336
172	0x3d583658	0.0527862
173	0x3cdcc0d3	0.026947415
174	0xbd1e16fe	-0.038596146
175	0x3d02e102	0.031952865
176	0x3b7f607b	0.003896742
177	0xbd0aee66	-0.03391876
178	0xbb7edba2	-0.0038888236
179	0xbd1952cf	-0.037432488
180	0x3c7bba95	0.015364309
181	0x3d2c2963	0.042031657
182	0x3bc17899	0.005904269
183	0x3d785191	0.060624663
184	0xbcd3f408	-0.0258732
185	0xbd00e3fb	-0.03146742
186	0x3d3d6899	0.04624233
187	0x3d22372f	0.03960341
188	0xbd27ce1f	-0.040968057
189	0xbc80bf5a	-0.015716244
190	0xbd4cdbfe	-0.05001449
191	0x3ce19a61	0.027539434
192	0x3c8d1047	0.017219676
193	0xbb1321d1	-0.0022450576
194	0xbd213f31	-0.039366905
195	0x3d97a617	0.07404726
196	0x3c663118	0.014049791
197	0xbd0ebf69	-0.03485051
198	0x3d33df14	0.043913916
199	0xbd2df0f8	-0.042466134
200	0xbbdc70b5	-0.006727303
201	0xbca4c7f4	-0.020114876
202	0xbc63e49b	-0.013909484
203	0x3c3a9431	0.011387871
204	0x3d0655ba	0.0327966
205	0xbd1b4249	-0.03790501
206	0xbd44e04c	-0.04806547
207	0x3d5ad054	0.053421333
208	0xbcab6242	-0.020920876
209	0x3d609f30	0.054839313
210	0xbcaa4e41	-0.020789267
211	0xbd3e0e8d	-0.046400595
212	0xbb4b9e04	-0.0031069526
213	0xbd71e920	-0.059060216
214	0xbd3d9485	-0.046284217
215	0x3c9dc7c9	0.019260304
216	0x3b3e8c21	0.0029075223
217	0xbd6eb4ea	-0.058278
218	0x3c9c34aa	0.019068081
219	0x3d309a72	0.04311604
220	0x3be5acc8	0.0070091225
221	0x3d9ec469	0.07752306
222	0xbd814058	-0.06311101
223	0x3d343cc9	0.04400328
224	0xbdaaa61a	-0.083324626
225	0x3d3ce203	0.04611398
226	0xbc7a77de	-0.015287368
227	0xbcfdabe2	-0.03096575
228	0x3cf990bc	0.030464523
229	0x3c7f3da9	0.015578666
230	0x3b829124	0.0039845873
231	0xbcbb8c0d	-0.02289393
232	0x3d7cfa56	0.061762176
233	0x3cdb9500	0.026804447
234	0xbcb06179	-0.021530854
235	0xbd1e74df	-0.038685676
236	0x3d325507	0.04353812
237	0xbd1126b0	-0.035437286
238	0xbd1bc39c	-0.038028345
239	0xbb7fdffc	-0.0039043417
240	0xbc3c21a6	-0.011482632
241	0xbd06a653	-0.032873463
242	0xbca7f5d7	-0.020502968
243	0x3ce8b750	0.028407723
244	0x3d244e54	0.040113762
245	0xbc1ade41	-0.0094524035
246	0xbcd8cfc3	-0.026466256
247	0x3d4b269b	0.049597364
248	0xbd0fed49	-0.035138402
249	0x3d20c655	0.039251644
250	0xbd4874fd	-0.048939694
251	0x3b2bca32	0.0026213047
252	0x3c0b01b1	0.00848429
253	0xbd72ed20	-0.05930817
254	0x3c8c4e74	0.017127253
255	0xbb3b67e9	-0.002859587

net.2.bias f4 [256]
0	0x3d7d63a3	0.0618626
1	0xbd6627ed	-0.05619042
2	0x3c846f9d	0.016166503
3	0x3ca35300	0.019937038
4	0xbd168f48	-0.036757737
5	0x3d53ec0c	0.051738784
6	0xbb9baa6a	-0.0047505395
7	0x3c884b5a	0.016637493
8	0x3d3a874a	0.045539178
9	0x3a50790b	0.0007952607
10	0xbd0b57d8	-0.03401932
11	0x3cf12c5b	0.029440096
12	0xbae0c949	-0.0017149831
13	0x3d7abd6e	0.06121581
14	0x3d3c9a4b	0.046045583
15	0xbcd68b91	-0.026189597
16	0x3c5f21f0	0.013618931
17	0x3d43711c	0.04771529
18	0x3d6cc8a0	0.05780852
19	0xbc75aa34	-0.014994193
20	0xbcae38f6	-0.021267395
21	0xbd33e640	-0.043920755
22	0x3d4818fd	0.048851956
23	0x3c68f4da	0.014218533
24	0x3d3b28b5	0.045693118
25	0x3a968de2	0.0011486376
26	0xbd6b2284	-0.057405964
27	0x3d548016	0.051879965
28	0x3d423f70	0.04742378
29	0x3d3f29cb	0.046670716
30	0x3d585c0a	0.05282215
31	0x3cf7f3d3	0.030267632
32	0xbd6c0257	-0.05761942
33	0x3cde5093	0.02713803
34	0xbc45a6ec	-0.012063723
35	0x3d64e53b	0.055882674
36	0xbbe687d7	-0.0070352363
37	0xbd394422	-0.045230992
38	0xbbbffcc7	-0.005858991
39	0xbc2fa2d0	-0.01071997
40	0x3d5a4843	0.05329157
41	0x3bb31d35	0.0054661282
42	0x3d32a19a	0.043611147
43	0xbd1f3083	-0.038864624
44	0xbd66a6d5	-0.056311447
45	0x3d33a0a8	0.043854386
46	0x3c3a99e2	0.011389228
47	0x3b08cf61	0.002087556
48	0xbd36eb69	-0.0446581
49	0x3d49cdf4	0.049268678
50	0x3a8694c2	0.0010267722
51	0x3cbeb368	0.023278907
52	0xbc31fee8	-0.010863997
53	0xbbc85d6c	-0.0061146524
54	0xbd0a6c0e	-0.033794455
55	0xbc8e2f8e	-0.01735666
56	0xbc930f53	-0.017951643
57	0x3d22a302	0.039706238
58	0x3b91cf16	0.0044497354
59	0x3d7b7c95	0.061398108
60	0x3d1b09d5	0.037851173
61	0xbcb373a3	-0.021905726
62	0xbcc540c6	-0.024078738
63	0xbc199f71	-0.009376393
64	0x3aefb089	0.0018286865
65	0xbd0f489d	-0.03498136
66	0x3d3df5b0	0.046376884
67	0xbd15befe	-0.036559097
68	0xbd292229	-0.041292343
69	0x3d5248b0	0.05133885
70	0x3d485f4d	0.04891901
71	0xbcfe2309	-0.031022565
72	0xbd1ad02c	-0.037796184
73	0x3b03a2a1	0.0020085948
74	0xbd4c3459	-0.04985461
75	0xba5cbcec	-0.00084204855
76	0x3c813b3f	0.015775321
77	0xbc516c8e	-0.012782229
78	0xbd04d0e7	-0.032425787
79	0xbceb57e3	-0.028728431
80	0x3d013fe1	0.03155506
81	0xbce05ed9	-0.027388977
82	0x3d48e74b	0.049048703
83	0x3d4bd6da	0.049765445
84	0xbd1cd44e	-0.038288407
85	0xbd6aeaf2	-0.057352968
86	0x3c5135a7	0.012769139
87	0xbd5a4e92	-0.053297587
88	0x3cd31efa	0.025771607
89	0x3c3a1cd3	0.011359411
90	0x3d47d95f	0.048791286
91	0x3b677e9e	0.0035323272
92	0x3d1badd5	0.038007576
93	0xbd6dc1be	-0.058046095
94	0x3d2e1f2b	0.042510193
95	0x3bdae58d	0.0066801966
96	0x3d55a52c	0.052159473
97	0x3d326cd9	0.043560836
98	0xbc870d3d	-0.016485805
99	0xbd15f2d9	-0.03660855
100	0xbd62fce6	-0.055416964
101	0x3c2fc361	0.010727734
102	0x3d4bd5cc	0.04976444
103	0x3a82de01	0.0009984375
104	0xbcb7d2d6	-0.022439402
105	0x3c9ef872	0.019405577
106	0x3d54853a	0.051884867
107	0x3d4498ab	0.047997158
108	0x3c5334c6	0.012891
109	0x3d462d39	0.04838297
110	0xbc705f45	-0.0146711515
111	0x3c442c72	0.011973487
112	0xbd509141	-0.050919775
113	0xbd2f9b0c	-0.042872474
114	0xbd3b355e	-0.04570519
115	0x3c6fa7eb	0.014627437
116	0x3c2a659a	0.0104002
117	0xbba9b165	-0.005178618
118	0x3d3dc749	0.04633263
119	0x3d177579	0.036977265
120	0xbc3563ef	-0.011071189
121	0x3cec45e4	0.02884192
122	0xbcb6553a	-0.022257436
123	0x3d2555f0	0.04036516
124	0xbd129370	-0.03578514
125	0xbd07b479	-0.033131097
126	0xbd702cc4	-0.05863644
127	0x3cce0e15	0.0251532
128	0xbb52f1c7	-0.0032187568
129	0x3d095079	0.03352401
130	0xbd31d64f	-0.04341727
131	0xbc648bb5	-0.013949324
132	0xbcb7d7ce	-0.02244177
133	0xbc087a45	-0.008329933
134	0x3d19ef56	0.037581764
135	0xbd62bdf7	-0.055356946
136	0x3c9f3b80	0.019437551
137	0x3c1fd16e	0.009754522
138	0x3b073a02	0.002063394
139	0xbd25f5e7	-0.040517714
140	0x3a8847c8	0.0010397369
141	0x3b0f378a	0.0021853172
142	0xbc4c9061	-0.0124855945
143	0xbd7d400b	-0.061828654
144	0x3d060e26	0.032728337
145	0xbc36b40b	-0.011151324
146	0x3d46d813	0.04854591
147	0x3d7c33ac	0.061572716
148	0x3ccca6a3	0.024981802
149	0xb9aac82b	-0.00032574064
150	0xbd5a0fd2	-0.053237744
151	0x3d514b0b	0.051096957
152	0x3d3db849	0.046318326
153	0xbd551fd6	-0.052032314
154	0x3d39689f	0.04526579
155	0xbd3cad53	-0.046063732
156	0x3d04d7e3	0.032432448
157	0xbcc57401	-0.024103167
158	0xbcf314c9	-0.029672997
159	0xbba9e617	-0.0051848995
160	0x3d1ddc70	0.038540304
161	0xbd3138ee	-0.043267183
162	0xbcdd3d39	-0.027006732
163	0xbcdd3e95	-0.02700738
164	0x3d11e4ef	0.03561872
165	0xbcb76c73	-0.02239058
166	0xbbf75b7b	-0.007548747
167	0x3b0f161a	0.0021833242
168	0x3cc9fe53	0.024657404
169	0xbcfa2e50	-0.030539662
170	0xbd4a1c6d	-0.049343515
171	0xbcb794d0	-0.022409827
172	0x3d5ebef4	0.054381326
173	0xbb170390	-0.0023042895
174	0xbcc7e5e8	-0.02440162
175	0x3d67c92e	0.056588344
176	0x3d4497a0	0.047996163
177	0x3a2f3617	0.000668378
178	0x3ba0a169	0.004902054
179	0x3ce5ec78	0.028066859
180	0x3d5fa78d	0.05460315
181	0x3d11ffd4	0.035644367
182	0xbd33e3c0	-0.04391837
183	0xbd4f595c	-0.05062233
184	0xbceb2cd5	-0.028707901
185	0x3d5b9170	0.053605497
186	0x3d6e2a21	0.058145646
187	0x3cdbbcbe	0.026823398
188	0x3cf4e957	0.029896421
189	0xbc56a298	-0.013100289
190	0xbd614358	-0.054995865
191	0x3d7955ed	0.06087296
192	0x3d577a74	0.052607015
193	0xbd67bda5	-0.056577343
194	0xbd2e3a72	-0.042536207
195	0x3d3dfb37	0.046382155
196	0xbd269098	-0.04066524
197	0x3ce91479	0.028452145
198	0x3bdce500	0.006741166
199	0x3d47523a	0.0486624
200	0xbd719aa5	-0.05898537
201	0xbd17e63b	-0.0370848
202	0x3d0ed232	0.034868427
203	0xbd00df9a	-0.031463243
204	0x3d50eb7e	0.051005833
205	0xbd2aabd1	-0.041667763
206	0xbb0c7b3f	-0.0021435765
207	0xbca3573c	-0.019939058
208	0xbd233479	-0.039844964
209	0x3baaa9ed	0.005208245
210	0xbc3993db	-0.011326755
211	0xbb5b8ef1	-0.0033501948
212	0x3c9c0d34	0.019049264
213	0x3d60d9d0	0.054895222
214	0xbba6ba39	-0.0050881174
215	0x3bd87e9d	0.0066068904
216	0x3cf2b3bf	0.029626725
217	0x3ce316bb	0.0277208
218	0x3d8f321b	0.06991979
219	0xbd5c84c3	-0.05383755
220	0xbd67f57a	-0.05663059
221	0x3d0e3478	0.034718007
222	0x3d3c1545	0.04591872
223	0x3d5ed0a6	0.0543982
224	0xbc4df7c4	-0.012571279
225	0x3c639659	0.013890826
226	0xbce034bb	-0.027368894
227	0x3cfd95a0	0.030955136
228	0xbd49785e	-0.049187057
229	0xbceeebb6	-0.02916513
230	0x3d3698c5	0.044579286
231	0xbbe42809	-0.0069627804
232	0xbc300b9d	-0.010744956
233	0xbd55c0cb	-0.052185815
234	0x3d505b7c	0.050868496
235	0xbd5bb241	-0.053636793
236	0xbd60e386	-0.054904483
237	0x3d782a91	0.06058747
238	0x3b591ae5	0.0033127603
239	0xbce460bf	-0.027878163
240	0x3c076ecb	0.008266161
241	0x3d6579be	0.056024306
242	0xbd014bc9	-0.031566415
243	0x3d4ca5e1	0.049962882
244	0xbd7b7d4b	-0.061398786
245	0x3d4af96c	0.049554273
246	0xbd4d84fe	-0.05017566
247	0xbd104960	-0.035226226
248	0xbd3db875	-0.04631849
249	0xbd3ecf10	-0.04658419
250	0xbcecc8e0	-0.028904378
251	0xbc25f6cd	-0.010129643
252	0xbd36273e	-0.044471018
253	0x3ce7b5bf	0.028284905
254	0xbcb89db8	-0.022536144
255	0xbd50ac5a	-0.050945617

net.4.weight f4 [3, 256]
0	0xbcc86038	-0.024459943
1	0x3d1fea36	0.03904172
2	0x3ccda673	0.025103783
3	0xbd8a5bc3	-0.067557834
4	0x3d39cec3	0.0453632
5	0xbd41b128	-0.04728809
6	0xbcf42c26	-0.029806208
7	0x3beb206c	0.007175496
8	0xbc63e220	-0.013908893
9	0xbcab9ca6	-0.02094872
10	0xbd77410d	-0.06036477
11	0xbd572aa8	-0.052530915
12	0x3d9354e2	0.071939245
13	0x3d677b13	0.056513857
14	0x3d4bf40a	0.04979328
15	0x3d6f2f87	0.058394935
16	0x3caf062d	0.02136525
17	0x3daf2f4e	0.085539445
18	0xbd80e19e	-0.06293033
19	0xbd70a0b2	-0.058747
20	0x3d361487	0.04445317
21	0x3d7dc792	0.061957903
22	0x3d701505	0.058613796
23	0xbd54169c	-0.051779374
24	0xbc6c2426	-0.014412915
25	0x3a8c76bc	0.0010716538
26	0xbd4e8afa	-0.050425507
27	0x3cfbb2b9	0.03072487
28	0x3c3f53aa	0.011677662
29	0xbd1bc051	-0.038025204
30	0xbda788e3	-0.08180406
31	0xbd5528e2	-0.052040942
32	0xbd152df5	-0.03642078
33	0xbd8eab3b	-0.06966253
34	0x3c9ab3a0	0.01888448
35	0x3d76e7f9	0.06027982
36	0xbcab4f39	-0.0209118
37	0xbc1e4cac	-0.009661835
38	0x3cba58e5	0.022747466
39	0xbd3a68e4	-0.045510188
40	0xbd187985	-0.037225265
41	0xbd48af52	-0.048995323
42	0x395c5ed0	0.00021016155
43	0xbcd8f73d	-0.02648508
44	0xbd124c9f	-0.035717603
45	0x3d822c61	0.06356121
46	0xbce363e9	-0.027757602
47	0x3c535bee	0.012900336
48	0xbb301f58	-0.002687415
49	0xbd2aef8e	-0.041732363
50	0xbd3509a3	-0.044198643
51	0xbb898105	-0.0041962885
52	0xbc021c34	-0.007941294
53	0x3cd0b5d6	0.025477331
54	0x3b8415f7	0.0040309387
55	0xbdbdd878	-0.09269804
56	0xbd4f65de	-0.050634257
57	0x3cceff5a	0.025268245
58	0xbbabe65a	-0.005245966
59	0x3d3d3f3b	0.04620288
60	0xbd8fc1ab	-0.07019361
61	0x3d3d9ba7	0.04629102
62	0x3d971acf	0.0737816
63	0x3c219da1	0.009864242
64	0xbd32d604	-0.043661132
65	0x3d97b4ca	0.0740753
66	0x3d6251e7	0.05525389
67	0x3d3d14e5	0.046162505
68	0xbd29ba88	-0.041437656
69	0xbd443220	-0.047899365
70	0xbd903c9a	-0.07042809
71	0xbcf18996	-0.029484551
72	0x3d2c78b9	0.042107318
73	0xbd80617c	-0.06268594
74	0xbd1b76cb	-0.037955087
75	0x3bf5a6a3	0.0074966713
76	0xbd395d15	-0.045254786
77	0xbd94c68b	-0.072644316
78	0x3cce9dbe	0.025221702
79	0xbcd3e7a8	-0.025867298
80	0xbd35513d	-0.044266928
81	0xbd609e28	-0.05483833
82	0x3c4193a2	0.011814984
83	0x3d0002cd	0.03125267
84	0xbd353546	-0.04424026
85	0x3d5c1c10	0.0537377
86	0x3d543295	0.05180605
87	0x3c47e990	0.012201682
88	0x3d2030cf	0.039109048
89	0xbd789e3d	-0.060697783
90	0x3cde9a1c	0.027173094
91	0xbb962611	-0.0045821746
92	0x3d95afcd	0.07308922
93	0x3ca4e07a	0.02012657
94	0xbb9add67	-0.0047261002
95	0xbcb021c1	-0.02150047
96	0x3d5fe97d	0.05466603
97	0xbd79b556	-0.06096395
98	0xbcd1ea5d	-0.025624448
99	0xbcb1fad1	-0.021726044
100	0x3d5e303d	0.054245222
101	0x3d82db75	0.06389514
102	0x3d2b3dfe	0.041807167
103	0xbd89c102	-0.067262664
104	0x3d48cd9f	0.04902422
105	0x3daa8ce4	0.08327654
106	0xbd642022	-0.055694707
107	0xbd969155	-0.07351939
108	0x3c7dbed5	0.015487392
109	0xbd94c0da	-0.07263346
110	0xbd9eec49	-0.077599116
111	0x3cc1a27c	0.023637049
112	0xbd905eb9	-0.07049317
113	0xbd046b4d	-0.032328892
114	0xbd752916	-0.059853636
115	0xbb89e694	-0.0042083953
116	0x3d60ca09	0.054880176
117	0xbcfcde56	-0.030867737
118	0xbc894507	-0.016756548
119	0x3ba65bfb	0.005076883
120	0xbbc5465a	-0.0060203495
121	0xbd54a39a	-0.051913835
122	0x3bd12379	0.0063824025
123	0xbd003a85	-0.03130581
124	0x3d36319b	0.0444809
125	0xbd9f6434	-0.07782784
126	0xbd679e3e	-0.056547396
127	0xbcd9b391	-0.026574882
128	0x3ce68ed5	0.02814428
129	0xbcf1a527	-0.029497696
130	0xbd1b1882	-0.03786517
131	0xbd3be466	-0.045872115
132	0xbd67d832	-0.056602664
133	0xbd35e79d	-0.044410337
134	0x3d296615	0.04135712
135	0x3d207bac	0.039180443
136	0x3d608c5f	0.05482137
137	0xbd8e340f	-0.06943523
138	0x3da81cb6	0.08208601
139	0xbd44cff6	-0.04804989
140	0x3d363f39	0.044493888
141	0x3d5603db	0.05224977
142	0xbd1715f3	-0.036886167
143	0x3c0bf49b	0.008542205
144	0x3d0362f3	0.032076787
145	0x3d72b7e4	0.059257403
146	0x3d532fca	0.051559247
147	0xbd131380	-0.03590727
148	0x3d4fd88c	0.050743625
149	0x3d60d078	0.05488631
150	0x3d29b053	0.04142792
151	0x3c8a584d	0.016887808
152	0x3d316981	0.043313507
153	0x3c87b66c	0.016566478
154	0x3d8334dd	0.06406567
155	0x3d85eebc	0.065396756
156	0xbd55092b	-0.052010696
157	0xbd639a02	-0.055566795
158	0xbc2a3a7d	-0.010389921
159	0xbcdeb1f4	-0.027184464
160	0xbd177eb7	-0.03698608
161	0xbcb3aca0	-0.0219329
162	0x3da43cb6	0.08019392
163	0xbc2d8942	-0.010591807
164	0xbd1672a1	-0.036730412
165	0x3d57e49a	0.052708246
166	0xbd84d79d	-0.064864375
167	0xbcf2e0b2	-0.029648159
168	0x3d7c8cef	0.061657842
169	0x3d7859fb	0.060632687
170	0x3d639f8d	0.05557208
171	0xbd01c713	-0.031683993
172	0xbd865ff0	-0.065612674
173	0x3d307d85	0.043088455
174	0x3d1299bb	0.03579114
175	0xbd6a9d7b	-0.05727909
176	0xbd519171	-0.051164094
177	0x3c357341	0.011074842
178	0xbb78c65c	-0.0037960028
179	0xba7eae61	-0.00097153155
180	0x3c22a7cb	0.0099277
181	0xbd11743b	-0.035511237
182	0x39fac10d	0.0004782755
183	0x3ce49b27	0.027906014
184	0x3a75e30e	0.0009379842
185	0xbd9bcc87	-0.0760737
186	0x3cd64002	0.026153568
187	0xbd4afba6	-0.049556397
188	0xbdccef10	-0.10006535
189	0xbdbdfa75	-0.092762865
190	0x38f761af	0.00011796073
191	0x3d8dfad1	0.06932605
192	0x3d267cdb	0.040646415
193	0x3ce3cf59	0.027808832
194	0xb9a1eb31	-0.00030883544
195	0x3cd09468	0.02546139
196	0xbb57ced8	-0.0032929685
197	0x3d8dbdd7	0.06920975
198	0x3d1b1f75	0.037871797
199	0x3c5cfc97	0.0134879565
200	0x3d1b1666	0.037863158
201	0xbd714986	-0.058908008
202	0x3cf3d44b	0.029764315
203	0x3c282855	0.010263522
204	0xbd8c403b	-0.068481885
205	0xbc277ce3	-0.010222646
206	0xbd6f2fae	-0.05839508
207	0x3b2af532	0.002608609
208	0xbd5e882c	-0.054329082
209	0x3d479bd7	0.048732605
210	0x3d4f7005	0.05064394
211	0xbdafc7a7	-0.085830025
212	0x3c8bafa1	0.01705152
213	0x3d28cf5e	0.041213386
214	0xbd961b7b	-0.0732946
215	0xbd12858f	-0.035771903
216	0xbd86ba2a	-0.06578477
217	0xbd6305f6	-0.055425607
218	0xbd9df1cf	-0.07712137
219	0xbc264da0	-0.010150343
220	0xbc6cc9dc	-0.014452424
221	0x3b7446b0	0.0037273578
222	0x3d8d8a87	0.069111876
223	0xbad5071f	-0.0016252733
224	0xbd617fec	-0.055053636
225	0xbc6fa76a	-0.014627317
226	0xbd44fff8	-0.048095673
227	0xbc2c2e36	-0.010509064
228	0xbd12c7f1	-0.03583521
229	0xbd291e0f	-0.04128843
230	0x3d7cb999	0.061700437
231	0xbd599c90	-0.053127825
232	0xbd3e14cd	-0.046406556
233	0x3d041b23	0.032252442
234	0x3d152b71	0.036418382
235	0xbd28f888	-0.041252643
236	0x3d53a11e	0.051667325
237	0x3d861411	0.06546796
238	0x3ccf2b05	0.025289068
239	0x3c4032f4	0.011730898
240	0xbcafaa62	-0.02144355
241	0x3d1ecafb	0.038767796
242	0xbc9b6420	-0.018968642
243	0x3c8a4968	0.016880706
244	0xbc5a6fc6	-0.013332313
245	0xbb2d7015	-0.0026464511
246	0xbc4074fc	-0.011746641
247	0x3d1c995e	0.0382322
248	0x3dbab5a5	0.09116677
249	0x3cef3d71	0.029204102
250	0x3d8c7688	0.068585455
251	0x3d108493	0.035282683
252	0x3d36e8ec	0.044655725
253	0x3d1a9ffd	0.037750233
254	0x3d4edea6	0.050505303
255	0xbcbdb5b6	-0.023157936

net.4.bias f4 [3]
0	0xbd528086	-0.0513921
1	0x3d60b559	0.054860447
2	0xbd5a28ed	-0.053261686
