models/downstream_head.pth (torch, 533941 bytes, 6 tensors)

net.0.weight f4 [256, 257]
0.046699006 0.055197876 -0.0056444393 0.06036042 -0.012541168 0.011642888 -0.028837757 0.03672076
0.056438442 -0.04815261 0.06976001 0.011624526 0.045882214 0.0012225861 0.033726163 -0.0019516064
0.043605912 0.0038615998 -0.018974068 -0.0027604247 -0.019812547 0.0012536215 -0.030503139 0.043026797
-0.058141943 -0.032852814 -0.017522722 -0.04140964 -0.0059411223 -0.065186396 0.054265376 -0.04961433
0.04837146 -0.0021669779 -0.029014898 0.03613177 0.010303751 0.05172161 0.0011585561 -0.021877877
0.016012227 -0.017790446 0.016856564 0.049570486 0.032665696 -0.028055731 0.042122148 0.012258242
0.03119651 -0.039807048 -0.063828014 -0.028580122 -0.04827136 0.054551836 0.019565158 0.025083715
0.016462881 7.642112e-05 0.058450498 -0.044830646 0.0076973243 -0.039003924 0.020572383 -0.02042425
0.021138597 -0.010162453 0.050625354 -0.03478566 -0.03637033 -0.04155178 0.061176326 0.054380205
0.034956943 -0.051044684 -0.06731616 -0.04708313 -0.04096429 0.025389012 0.023242686 0.0521802
-0.030470237 -0.035720777 0.029712945 -0.025101127 0.03500832 -0.0119854715 0.031371504 -0.055170193
-0.03333967 0.016131308 0.013812373 -0.027833628 0.023769831 0.029448392 -0.06664898 -0.034941703
0.05592005 -0.023751419 -0.019940864 -0.06540157 -0.033755183 0.015428882 -0.011095385 -0.051387105
0.0011274252 -0.04211394 -0.06296337 -0.033669975 -0.05051941 -0.044646285 0.053016473 0.019520605
0.0128530795 -0.06490471 -0.038141612 0.008347357 0.012523407 -0.05165453 -0.0216833 -0.055339012
0.00059470424 -0.028949872 0.015995987 -0.048919316 -0.054549515 -0.03710033 -0.021940883 -0.052606624
0.04484903 -0.04286367 0.05853596 0.019432591 -0.028802078 0.04813974 -0.020895852 -0.025388965
-0.05437369 -0.06633252 0.017002301 -0.01883708 0.026956437 -0.053133287 0.037176784 -0.046140354
-0.0082998 0.014257117 0.035069972 0.05249242 0.05492991 -0.052898902 0.0149042215 -0.029661795
-0.005526207 -0.04769976 0.053640254 -0.0533615 0.026923398 0.018912923 0.018503357 -0.029515943
0.051733978 0.014319798 0.008649489 -0.06778902 0.027013473 -0.012226529 -0.042430326 0.05451914
-0.016959442 -0.035028927 -0.042796314 0.0017933408 0.029268846 -0.012089422 -0.041177616 -0.01829294
-0.043659285 0.020505402 0.048739184 -0.05471554 0.010936329 0.031377748 0.010569343 -0.019510707
0.033768833 0.037255984 0.017688148 -0.0074194497 -0.019814432 0.0072483364 -0.011730017 -0.013813623
0.037910342 0.05656994 -0.006297463 -0.012136488 0.00036393304 -0.0014099926 0.017625766 0.012201834
-0.05425652 -0.02262089 0.052371297 0.054342546 -0.002181618 -0.0356842 -0.036244884 -0.06550249
-0.021826303 0.032888126 0.04258323 0.06199603 -0.05755326 -0.04018354 -0.005139743 0.060088105
0.008370324 -0.012166617 0.026841626 -0.028404338 -0.038029436 0.046694856 -0.03028674 -0.012886919
-0.06546503 0.046067193 0.044527482 0.024717445 -0.040522955 -0.04702164 -0.05995123 0.044236872
0.031719506 0.05372842 0.027244752 0.015765822 -0.0074980673 -0.05060007 -0.05259757 -0.030450383
0.029218877 -0.019201994 -0.019720662 -0.03174911 -0.007329224 -0.04121079 -0.03850195 0.02378637
-0.021841265 0.033446517 -0.01770214 -0.041556235 -0.004662407 -0.027115803 -0.015376767 -0.06490182
00000000: 7547 3f3d 2b17 623d fdf4 b8bb 7d3c 773d
00000010: 7979 4dbc d0c1 3e3c 293d ecbc 8268 163d
00000020: ff2b 673d ac3b 45bd 56de 8e3d cc74 3e3c
00000030: fdee 3b3d 2f3f a03a 7224 0a3d 0bcd ffba
00000040: 1d9c 323d e512 7d3b 816f 9bbc 3ee8 34bb
00000050: ec4d a2bc 8f50 a43a b8e1 f9bc de3c 303d
00000060: 3f26 6ebd ac90 06bd d08b 8fbc 289d 29bd
00000070: bfad c2bb 7280 85bd 5f45 5e3d 6538 4bbd
00000080: 2721 463d db03 0ebb a7b0 edbc e8fe 133d
00000090: 10d1 283c 0ada 533d b1da 973a 3c39 b3bc
000000a0: 132c 833c 45bd 91bc c716 8a3c 6c0a 4b3d
000000b0: 77cc 053d 22d5 e5bc 4688 2c3d cbd6 483c
000000c0: d38f ff3c b70c 23bd 43b8 82bd dc20 eabc
000000d0: 31b8 45bd bf71 5f3d 1c47 a03c 5d7c cd3c
000000e0: 2add 863c 4744 a038 ca69 6f3d 57a0 37bd
000000f0: d639 fc3b 94c2 1fbd 6a87 a83c c250 a7bc
00000100: da2a ad3c 6b80 26bc 885c 4f3d 697b 0ebd
00000110: 0ef9 14bd 3332 2abd 0794 7a3d c7bd 5e3d
00000120: 032f 0f3d 3b14 51bd 0edd 89bd 3dda 40bd
00000130: 2cca 27bd 9efc cf3c 7267 be3c e8ba 553d
00000140: b89c f9bc f34f 12bd 9068 f33c e1a0 cdbc
00000150: e264 0f3d b65e 44bc 687f 003d 24fa 61bd
00000160: 2e8f 08bd ce25 843c 4b4d 623c 5903 e4bc
00000170: f3b8 c23c c13d f13c 437f 88bd 081f 0fbd
00000180: 6c0c 653d 5692 c2bc 065b a3bc 42f1 85bd
00000190: e042 0abd 6cc9 7c3c 6bc9 35bc 497b 52bd
000001a0: 1dc6 933a ab7f 2cbd f0f2 80bd 87e9 09bd
000001b0: 71ed 4ebd 06df 36bd cd27 593d ade9 9f3c
000001c0: b995 523c c3ec 84bd 613a 1cbd 5ac3 083c
000001d0: fa2e 4d3c b393 53bd 2da1 b1bc 29ab 62bd
000001e0: ede5 1b3a 4828 edbc 040a 833c 9f5f 48bd
000001f0: 506f 5fbd 84f6 17bd 5ebd b3bc 0b7a 57bd
00000200: 9eb3 373d d191 2fbd 67c3 6f3d 1931 9f3c
00000210: 56f2 ebbc 2d2e 453d c72d abbc 85fc cfbc
00000220: f2b6 5ebd 58d9 87bd 6948 8b3c 3850 9abc
00000230: bfd3 dc3c 4aa2 59bd af46 183d abfd 3cbd
00000240: e2fb 07bc af96 693c 88a5 0f3d 4b02 573d
00000250: 2ffe 603d 85ac 58bd d630 743c 4bfd f2bc
00000260: 2f15 b5bb d360 43bd e2b5 5b3d 9791 5abd
00000270: 758e dc3c 46ef 9a3c 5a94 973c 6bcb f1bc
00000280: 02e7 533d 969d 6a3c 96b6 0d3c f8d4 8abd
00000290: 5c4b dd3c c851 48bc 6ccb 2dbd 764f 5f3d
000002a0: 87ee 8abc 7e7a 0fbd 304b 2fbd 880e eb3a
000002b0: 38c5 ef3c b612 46bc dca9 28bd 13db 95bc
000002c0: 14d4 32bd f2fa a73c bda2 473d 671d 60bd
000002d0: 4a2e 333c f485 003d 0a2b 2d3c ebd4 9fbc
000002e0: 3051 0a3d bb99 183d bce6 903c db1e f3bb
000002f0: e051 a2bc 7483 ed3b 422f 40bc 8952 62bc
00000300: e047 1b3d e2b5 673d f35a cebb 1fd8 46bc
00000310: 44ce be39 80cf b8ba e963 903c 33ea 473c
00000320: 163c 5ebd 724f b9bc 4983 563d 4a96 5e3d
00000330: 7af9 0ebb 9829 12bd 8475 14bd 2b26 86bd
00000340: 13cd b2bc b3b5 063d c16b 2e3d 8def 7d3d
00000350: f8bc 6bbd 7f97 24bd 4a6b a8bb f21e 763d
00000360: af23 093c 7e56 47bc f8e2 db3c 37b0 e8bc
00000370: c1c4 1bbd 1b43 3f3d e61b f8bc a823 53bc
00000380: 8812 86bd f4b0 3c3d 7362 363d 3d7c ca3c
00000390: 66fb 25bd c399 40bd 6c8f 75bd b931 353d
000003a0: 50ec 013d 5512 5c3d 6330 df3c 5327 813c
000003b0: 59b2 f5bb 0542 4fbd 8d70 57bd 1573 f9bc
000003c0: 6d5c ef3c 804d 9dbc 3a8d a1bc 5b0b 02bd
000003d0: fd29 f0bb a5cc 28bd 39b4 1dbd a2db c23c
000003e0: 74ec b2bc 37ff 083d 1404 91bc df36 2abd
000003f0: 1bc7 98bb f621 debc d6ee 7bbc 3feb 84bd

net.0.bias f4 [256]
-0.0011707969 -0.007728832 -0.021836394 -0.04035568 -0.013237244 0.06131317 0.042078316 0.015010875
-0.037918627 0.029683579 -0.010027083 -0.029820172 0.030648537 -0.02921304 0.012231103 -0.014986579
-0.055316806 0.03935498 0.010419673 0.042718235 -0.014595345 0.0059576924 -0.037366226 0.044148825
-0.026952973 0.015328135 0.061750527 -0.0520667 -0.02736486 0.03269969 -0.009372742 -0.029920263
-0.058073614 0.060263097 0.03570141 -0.0005907194 0.013950078 0.048480164 0.058830354 -0.027814643
-0.041609846 -0.04908511 -0.043938495 0.04125728 -0.054157574 0.0513691 0.05808021 -0.046389304
0.054637775 0.043938506 -0.058401197 -0.01629734 0.043884873 -0.00986718 -0.025064405 -0.0058976333
0.04533098 -0.040508416 -0.013701323 -0.017395103 0.017104167 -0.034960795 -0.028699495 -0.010804436
0.013222875 0.019143812 -0.031725246 -0.061672643 -0.041560054 0.037877936 0.021051679 -0.021748401
-0.012509371 -0.04685515 -0.044829745 0.010421212 -0.035835605 -0.0037692836 -0.035820186 0.031640857
0.032970183 -0.003211188 0.004351517 0.021029977 0.029425127 0.024000974 -0.018682076 0.0070711123
0.050078467 0.02930854 -0.05229912 0.020224769 -0.057562493 0.0533732 0.017656898 -0.027181417
0.05157929 0.037392404 0.03276382 0.04115614 0.02635807 -0.018038167 -0.015461037 -0.054315437
0.028073303 0.032123618 0.017455356 -0.018357757 -0.039297942 -0.04493496 0.0010937916 -0.006122803
-0.04245481 0.033936564 0.03824207 0.025019297 -0.025275994 0.017483056 0.054327704 2.789101e-05
0.01967278 0.032611597 -0.00516138 0.06568194 0.035057664 -0.0024015026 -0.014637057 0.0114632845
0.058526535 0.028991802 -0.059620295 -0.049384963 -0.05701993 0.022471663 -0.025946535 -0.02279033
-0.008590095 0.021733016 -0.018358165 0.04649167 -0.03891855 -0.042756986 -0.038667303 -0.036113545
0.0027744507 -0.0534227 0.007380258 -0.048602212 -0.017426917 0.01569972 0.06104475 -0.00876061
-0.039243527 -0.03989922 -0.030154057 -0.021297354 -0.041267063 0.018657686 0.054214295 -0.029018315
0.00815018 0.0649563 -0.03824559 0.05068251 0.021211818 -0.056542978 0.040246185 0.0015371642
0.007218114 -0.019761994 0.048094787 -0.00077772024 0.056476723 0.01872984 -0.04073237 0.03571549
0.00089909957 -0.03794907 0.009970196 -0.039079584 0.015557037 0.039633177 0.014635548 0.06597582
-0.009702656 -0.029528016 0.041934833 0.06742607 -0.033242527 0.00081282144 -0.048091806 0.017861722
0.019649496 -0.010439577 -0.035429865 0.06740655 0.008114533 -0.027266247 0.03102571 -0.03761454
-0.022096068 -0.029749362 -0.052859835 0.0029363157 0.024674017 -0.025227593 -0.039564997 0.055460747
-0.018412588 0.04473244 -0.015917232 -0.04936109 0.0056936475 -0.059602086 -0.006600604 0.018547324
0.007975705 -0.05696081 0.016463649 0.036679033 0.0209895 0.0660947 -0.05633501 0.03872815
-0.049101338 0.049734768 -0.025170874 -0.015197068 0.02062011 0.017403718 0.0038029123 -0.020871041
0.048557352 0.036892004 -0.019199219 -0.045040775 0.05416841 -0.041010663 -0.022763638 0.009384177
-0.010211369 -0.016743438 -0.014045983 0.034886908 0.035646886 -0.0030747566 -0.029617896 0.05085093
-0.034827113 0.052087475 -0.040662676 -0.0034985868 0.015884567 -0.047311634 0.021481024 -0.0051641944
00000000: 6d75 99ba 2442 fdbb 3de2 b2bc ff4b 25bd
00000010: 07e1 58bc 8523 7b3d 505a 2c3d 2cf0 753c
00000020: 9050 1bbd fa2a f33c a248 24bc 6f49 f4bc
00000030: a412 fb3c 2f50 efbc f764 483c 458a 75bc
00000040: e093 62bd b032 213d 47b7 2a3c 51f9 2e3d
00000050: 5021 6fbc bf38 c33b 540d 19bd 66d5 343d
00000060: 7bcc dcbc dc22 7b3c 1fee 7c3d e443 55bd
00000070: 452c e0bc 1cf0 053d 2190 19bc 571b f5bc
00000080: 99de 6dbd 70d6 763d a43b 123d 82da 1aba
00000090: de8e 643c 2393 463d 19f8 703d 89db e3bc
000000a0: 166f 2abd 780d 49bd daf8 33bd 65fd 283d
000000b0: 55d4 5dbd 6868 523d 84e5 6d3d b602 3ebd
000000c0: dccb 5f3d ddf8 333d 1836 6fbd 0082 85bc
000000d0: a0c0 333d f4a9 21bc de53 cdbc ef40 c1bb
000000e0: faac 393d 27ec 25bd 847b 60bc 2d80 8ebc
000000f0: 0a1e 8c3c 0d33 0fbd 341b ebbc 1705 31bc
00000100: c2a4 583c 7cd3 9c3c 55f2 01bd 749c 7cbd
00000110: e03a 2abd e525 1b3d 9274 ac3c b429 b2bc
00000120: 1bf4 4cbc 30eb 3fbd 659f 37bd bbbd 2a3c
00000130: 5bc8 12bd 1606 77bb 30b8 12bd d899 013d
00000140: be0b 073d cb72 52bb 2c97 8e3b 0f47 ac3c
00000150: f70c f13c b19d c43c 270b 99bc cab4 e73b
00000160: 141f 4d3d 7718 f03c 9a37 56bd 6aae a53c
00000170: a6c6 6bbd db9d 5a3d 33a5 903c 90ab debc
00000180: ce44 533d c728 193d 5b33 063d 5793 283d
00000190: e1ec d73c c7c4 93bc 4a50 7dbc dd79 5ebd
000001a0: fcf9 e53c 0e94 033d 89fe 8e3c 0263 96bc
000001b0: e1f6 20bd b80d 38bd 8e5d 8f3a cba1 c8bb
000001c0: 18e5 2dbd 1101 0b3d b7a3 1c3d 45f5 cc3c
000001d0: 9a0f cfbc a038 8f3c ba86 5e3d 7df7 e937
000001e0: cf28 a13c bd93 053d cb20 a9bb 4184 863d
000001f0: a098 0f3d 8762 1dbb 44d0 6fbc 80d0 3b3c
00000200: 85b9 6f3d 3780 ed3c 6934 74bd e347 4abd
00000210: bb8d 69bd 7e16 b83c d48d d4bc c9b2 babc
00000220: 78bd 0cbc 7009 b23c dd63 96bc 0d6e 3e3d
00000230: 0f69 1fbd f321 2fbd 9b61 1ebd cceb 13bd
00000240: 8fd3 353b c3d1 5abd 17d6 f13b 1d13 47bd
00000250: e5c2 8ebc b39c 803c 0f0a 7a3d a988 0fbc
00000260: d2bd 20bd 5d6d 23bd a405 f7bc ca77 aebc
00000270: a707 29bd 01d8 983c cf0f 5e3d d1b7 edbc
00000280: 5588 053c cf07 853d 68a7 1cbd 7798 4f3d
00000290: 68c4 ad3c 9c99 67bd 2fd9 243d ac7a c93a
000002a0: ee85 ec3b e8e3 a1bc 0aff 443d ecdf 4bba
000002b0: 2354 673d 526f 993c fcd6 26bd 684a 123d
000002c0: 8db1 6b3a 7c70 1bbd 085a 233c ea11 20bd
000002d0: f1e2 7e3c 6656 223d f0c9 6f3c 551e 873d
000002e0: e4f7 1ebc bde4 f1bc dcc3 2b3d ae16 8a3d
000002f0: 5129 08bd 8613 553a eafb 44bd bf52 923c
00000300: fbf7 a03c c20a 2bbc e81e 11bd 720c 8a3d
00000310: d1f2 043c 775d dfbc a129 fe3c b411 1abd
00000320: d002 b5bc efb4 f3bc 8e83 58bd 346f 403b
00000330: 2a21 ca3c 19aa cebc e80e 22bd cf2a 633d
00000340: ffd5 96bc 5d39 373d db64 82bc db2e 4abd
00000350: c791 ba3b 5121 74bd e149 d8bb 8ff0 973c
00000360: 88ac 023c bd4f 69bd c6de 863c c13c 163d
00000370: 2cf2 ab3c a85c 873d 8abf 66bd 69a1 1e3d
00000380: 7c1e 49bd afb6 4b3d 2633 cebc 20fd 78bc
00000390: 81eb a83c 3e92 8e3c 483a 793b bff9 aabc
000003a0: 13e4 463d 121c 173d ae47 9dbc ad7c 38bd
000003b0: b2df 5d3d ccfa 27bd cf7a babc 17c0 193c
000003c0: 964d 27bc 8929 89bc 1f21 66bc 93e5 0e3d
000003d0: 7802 123d db81 49bb 3ba1 f2bc 1149 503d
000003e0: e0a6 0ebd ad59 553d e88d 26bd 8c48 65bb
000003f0: 5a20 823c d8c9 41bd f9f8 af3c 6738 a9bb

net.2.weight f4 [256, 256]
0.0032272434 0.0694888 0.06546676 -0.04447631 -0.032566164 0.026434122 -0.04227653 0.04214399
0.024690771 -0.0032716598 -0.06974436 0.017249385 0.030346997 -0.018270057 0.010008308 0.010593596
0.032479145 -0.011751082 0.012578113 -0.060411498 0.0061936686 -0.019558648 -0.019023767 0.054676615
-0.054973453 -0.07720154 -0.012513909 -0.018351872 -0.058321267 -0.06858001 0.08089217 0.015415775
0.027306596 0.04779866 0.05471588 -0.044417784 -0.04695951 -0.03998893 0.06294327 0.07341699
0.06823315 0.038984045 0.0028885999 0.046548296 0.02681292 -0.024634518 -0.012093506 0.030083708
0.0469881 -0.021748621 0.060226683 0.023295265 -0.0383199 -0.034978736 0.054789532 0.063262634
0.034607127 0.014917416 0.006556433 -0.0141471485 -0.0032325077 -0.017419199 0.020945376 0.00095071783
0.06152092 -0.00798208 0.05389775 0.065433815 -0.0054458547 -0.006151102 0.05448189 -0.06766214
0.034213472 -0.025165522 0.043888528 -0.04310936 0.02186349 -0.00040425206 -0.0014904924 0.04325269
-0.019869855 -0.008574101 0.021332502 0.034526784 0.023856096 -0.004648817 -0.014894582 -0.03079435
-0.06845981 0.05154461 -0.023572244 0.023630343 0.015922256 -0.03565565 -0.04057704 -0.061791524
-0.041324474 -0.03513409 0.058718644 0.003684533 0.033043582 -0.015187553 -0.04314122 0.014307243
0.042682823 0.009629131 0.018325 0.048468832 0.014831326 -0.022986377 0.038398817 0.032911714
0.057570312 0.037503775 0.0616718 -0.052280955 -0.041774534 -0.054586634 -0.029563237 0.02623697
-0.03581743 0.05623712 -0.030178143 0.03648847 8.8458764e-05 0.025448507 -0.016199546 0.013672794
-0.06526524 -0.011230777 0.051093698 0.0028412854 -0.033380825 -0.014645279 -0.0155998515 0.003638062
0.03648384 0.013634689 -0.018450344 0.071477786 0.053929526 0.050909355 0.039383795 0.013349719
0.019648066 -0.06745219 -0.022082942 0.024393093 -0.0032255673 0.0069208206 0.05606189 -0.063682236
-0.05009708 -0.015817607 -0.08041558 -0.014136354 -0.001117366 0.0012924352 0.07018389 -0.073410705
0.03748982 -0.026385494 -0.016161615 0.0090777185 -0.039155826 -0.031488013 -0.040936917 0.002561739
0.010229866 0.03832246 0.08169816 0.041712116 0.043146677 -0.0058557736 -0.04785175 -0.008774471
-0.014237695 -0.024732923 0.034236256 0.0145338485 -0.037063695 0.042270385 0.07223553 -0.07042987
-0.021262594 -0.0047741854 0.04290063 0.06449346 0.0509564 0.0057968968 -0.08682282 -0.06859241
-0.056607697 -0.06599041 -0.0063336934 -0.042065658 0.016632494 0.015243544 0.04645808 0.034096733
0.035682112 -0.00421906 -0.013124504 0.023407958 0.02818199 0.046294525 0.033981025 0.020925248
-0.023408247 0.05389038 -0.026670484 0.036309306 0.04238037 -0.068660975 -0.019268079 0.050459635
0.047122233 -0.0042674677 -0.020760577 0.047485925 0.068875864 -0.040099077 0.062320642 0.07001677
0.017014181 -0.055826776 -0.0012966109 -0.00047281658 -0.03124083 0.054825295 0.060022745 0.0599662
-0.034100994 -0.010564172 -0.07464316 0.03134752 0.004887437 -0.010416373 0.01637054 -0.0435603
0.03831756 0.029233929 -0.03203176 0.025861466 -0.057154275 0.008018257 -0.04973647 0.003472899
-0.046306677 -0.055453435 -0.034157652 0.028221775 0.018397694 -0.036373477 -0.01264048 0.015691457
00000000: 2980 533b 2550 8e3d 7013 863d cb2c 36bd
00000010: 1964 05bd 5f8c d83c 282a 2dbd 2d9f 2c3d
00000020: 4d44 ca3c 5869 56bb 22d6 8ebd 954e 8d3c
00000030: 449a f83c 16ab 95bc e3f9 233c c390 2d3c
00000040: da08 053d 9c87 40bc 6e14 4e3c 0c72 77bd
00000050: 42f4 ca3b 7539 a0bc bbd7 9bbc 96f4 5f3d
00000060: d82b 61bd d71b 9ebd 2307 4dbc aa56 96bc
00000070: 48e2 6ebd ad73 8cbd cbaa a53d 7292 7c3c
00000080: 15b2 df3c 87c8 433d c21d 603d 6cef 35bd
00000090: 9d58 40bd 6fcb 23bd 67e8 803d a65b 963d
000000a0: d2bd 8b3d bcad 1f3d aa4e 3d3b 6da9 3e3d
000000b0: c5a6 db3c 54ce c9bc d723 46bc 1c72 f63c
000000c0: 9876 403d 2a2a b2bc 41b0 763d b6d5 be3c
000000d0: 54f5 1cbd dd45 0fbd fd6a 603d d78f 813d
000000e0: 34c0 0d3d 2d68 743c 59d7 d63b 71c9 67bc
000000f0: 7bd8 53bb b5b2 8ebc a395 ab3c 9839 793a
00000100: 5cfd 7b3d 45c7 02bc e3c3 5c3d 2a02 863d
00000110: 2473 b2bb 2f8f c9bb 6728 5f3d 7392 8abd
00000120: 6d23 0c3d ed27 cebc 75c4 333d 7193 30bd
00000130: 101b b33c cbf1 d3b9 a05c c3ba bc29 313d
00000140: 1bc6 a2bc 637a 0cbc 80c1 ae3c f56b 0d3d
00000150: dc6d c33c 1a55 98bb 6808 74bc 6f44 fcbc
00000160: a834 8cbd 7120 533d 941a c1bc 6c94 c13c
00000170: 646f 823c a90b 12bd 1c34 26bd 1c19 7dbd
00000180: da43 29bd c3e8 0fbd f682 703d 3578 713b
00000190: b558 073d 37d5 78bc d9b4 30bd ed68 6a3c
000001a0: 2fd4 2e3d 81c3 1d3c 4f1e 963c 4187 463d
000001b0: 17ff 723c ed4d bcbc 1448 1d3d 6fce 063d
000001c0: d9ce 6b3d 8f9d 193d 929b 7c3d 8e24 56bd
000001d0: c61b 2bbd 3c96 5fbd 9a2e f2bc eaee d63c
000001e0: 4cb5 12bd e558 663d 2738 f7bc ef74 153d
000001f0: f082 b938 6379 d03c e9b4 84bc db03 603c
00000200: c8a9 85bd 4b01 38bc a047 513d dc34 3a3b
00000210: 55ba 08bd c1f2 6fbc 8596 7fbc 8d6c 6e3b
00000220: 1470 153d 0864 5f3c 2d25 97bc f262 923d
00000230: 35e5 5c3d 5486 503d e750 213d c8b8 5a3c
00000240: fbf4 a03c 6024 8abd 49e7 b4bc 06d4 c73c
00000250: 0a64 53bb 0dc8 e23b 27a1 653d d56b 82bd
00000260: 9932 4dbd ed93 81bc ecb0 a4bd 2b9c 67bc
00000270: 9574 92ba ee66 a93a 92bc 8f3d 5a58 96bd
00000280: ed8e 193d 6426 d8bc 5d65 84bc b6ba 143c
00000290: dc61 20bd 93f9 00bd 78ad 27bd d9e2 273b
000002a0: 2b9b 273c 03f8 1c3d 5d51 a73d 53da 2a3d
000002b0: 92ba 303d cae1 bfbb 3200 44bd ccc2 0fbc
000002c0: 3945 69bc b39c cabc 513b 0c3d 611f 6e3c
000002d0: 1ad0 17bd b623 2d3d 39f0 933d 893d 90bd
000002e0: e42e aebc c570 9cbb 92b8 2f3d 2615 843d
000002f0: a8b7 503d e5f3 bd3b 2ad0 b1bd 2d7a 8cbd
00000300: 79dd 67bd fb25 87bd df8a cfbb 0a4d 2cbd
00000310: de40 883c 0fc0 793c d44a 3e3d 04a9 0b3d
00000320: 6827 123d 0a40 8abb 2908 57bc 0cc2 bf3c
00000330: ebdd e63c 549f 3d3d b02f 0b3d 6d6b ab3c
00000340: a7c2 bfbc 29bc 5c3d 0f7c dabc 11b9 143d
00000350: 0a97 2d3d 209e 8cbd 17d8 9dbc c3ae 4e3d
00000360: 3e03 413d 1dd6 8bbb 1612 aabc 9a80 423d
00000370: ca0e 8d3d ee3e 24bd ee43 7f3d f464 8f3d
00000380: 5361 8b3c 9eaa 64bd 0bf3 a9ba 5ee4 f7b9
00000390: c5ec ffbc 7d90 603d 69da 753d 1e9f 753d
000003a0: 7cad 0bbd 5915 2dbc 83de 98bd 4266 003d
000003b0: cb26 a03b 6fa9 2abc 831b 863c 496c 32bd
000003c0: e0f2 1c3d fe7b ef3c bc33 03bd 6ddb d33c
000003d0: 9a1a 6abd 025f 033c 78b8 4bbd 9499 633b
000003e0: 12ac 3dbd 2423 63bd e5e8 0bbd 5a31 e73c
000003f0: c3b6 963c 5bfc 14bd 041a 4fbc 5f8b 803c

net.2.bias f4 [256]
-0.0052637216 0.044844475 0.005254612 -0.04980467 0.049693823 -0.025395025 -0.01992169 0.011902231
-0.0058054547 -0.008681249 -0.028249197 -0.032906882 0.058742154 0.044481214 0.045208603 0.048436206
0.023914235 0.054573596 -0.030532496 -0.041817978 0.034167487 0.05942932 0.055098664 -0.03612516
-0.012052281 -0.00735055 -0.036544282 0.016836502 0.0027161692 -0.02224378 -0.05870273 -0.035222374
-0.032072864 -0.050959725 -0.0017079369 0.05458834 0.006995017 -0.010774103 0.03336233 -0.034785848
-0.03497617 -0.014996145 0.011534769 -0.013487193 -0.022738907 0.059840243 -0.038100947 0.009094277
0.0010348241 -0.026168015 -0.021709463 0.006950683 0.005326186 0.01395153 -0.011173214 -0.057138037
-0.028500529 0.026721055 -0.007848991 0.013153743 -0.043584265 0.034091376 0.0533135 0.008724149
-0.021745535 0.06244938 0.047358025 0.04005153 -0.04352076 -0.03323428 -0.05761435 -0.031221071
0.020587727 -0.04107761 -0.006925756 0.021561971 -0.03290192 -0.065371215 0.017274085 -0.0056286342
-0.044286557 -0.04454218 0.01140475 0.011002761 -0.026531622 0.04540211 0.054400735 0.0053769485
0.03568963 -0.037188627 0.017219888 0.010161069 0.06558302 0.014065979 0.017582837 -0.020452166
0.055956237 -0.04638629 -0.021589601 0.008522092 0.047744166 0.046622965 0.042220954 -0.06601275
0.05864226 0.051815186 -0.047883723 -0.045233116 0.012543084 -0.059877425 -0.05724231 0.020368945
-0.049638156 -0.026668178 -0.029690458 -0.009881409 0.047654953 -0.017671743 -0.013815894 0.0097164605
-0.0067917383 -0.02994755 0.009930112 -0.003587777 0.035258707 -0.043905113 -0.057773285 -0.00020981964
0.01598944 -0.015337139 -0.031539116 -0.042846493 -0.03913383 -0.036624536 0.041002434 0.03186078
0.050039146 -0.045545615 0.06589099 -0.024413107 0.02144642 0.04352716 -0.030475374 0.024360789
0.023814088 0.042577185 0.05208498 -0.014002262 0.0377342 0.0543066 0.04137213 0.009038219
0.027844427 0.0038800812 0.06121335 0.060000733 -0.043982726 -0.050024327 -0.0020768608 -0.019294642
-0.024695896 -0.018555934 0.061169717 -0.016181223 -0.01866775 0.03988095 -0.036903813 0.0004191813
0.05709244 0.048319973 0.046834778 -0.038797792 -0.03890433 0.008432036 0.025623241 -0.048269182
-0.042494703 0.01576616 -0.013730358 0.013950393 0.011879221 -0.022716776 0.001348918 0.04001313
-0.0033475908 -0.059210215 0.02503228 -0.02944244 -0.055409115 -0.053487796 0.0020399522 0.06565375
0.045081567 0.029102841 -0.012356117 0.025861215 -0.012011816 0.06199955 0.022248965 0.026776224
0.037570793 -0.039106827 0.020915318 0.0033955486 -0.042123944 -0.007896459 -0.03889012 0.0025387285
-0.031698525 0.035356093 0.027086224 -0.04890311 0.0133406995 0.038652036 -0.06101854 -0.04254407
-0.041988537 -0.04127322 -0.05531202 0.005939346 0.0066494457 0.0020100567 0.0577167 -0.010224598
-0.023917459 -0.021973135 -0.03313998 -0.008056591 -0.034335196 -0.030270526 0.05952096 -0.03861828
-0.031035073 0.020595597 0.037571054 -0.037697878 0.047025952 0.06004566 0.019195419 0.0009781637
-0.015567511 0.035057895 -0.015109246 0.013002219 -0.010906237 -0.008347566 -0.0107016945 0.044450734
0.051407628 0.019233448 0.05160208 0.038324896 0.035023622 0.034196857 0.040455703 -0.0299937
00000000: 4c7b acbb d7ae 373d e12e ac3b fbff 4bbd
00000010: c08b 4b3d 3a09 d0bc d032 a3bc 9301 433c
00000020: af3b bebb cc3b 0ebc dc6a e7bc 5ec9 06bd
00000030: 9d9b 703d ef31 363d a82c 393d 0b65 463d
00000040: c9e7 c33c 9088 5f3d 491f fabc 5449 2bbd
00000050: 35f3 0b3d 296c 733d 23af 613d faf7 13bd
00000060: ee76 45bc e2dc f0bb 75af 15bd b4ec 893c
00000070: c201 323b 9638 b6bc 4672 70bd 5645 10bd
00000080: d65e 03bd 25bb 50bd dadc dfba 0698 5f3d
00000090: 7536 e53b dd85 30bc f0a6 083d 9b7b 0ebd
000000a0: 2c43 0fbd 64b2 75bc 54fc 3c3c 63f9 5cbc
000000b0: f246 babc 0b1b 753d bd0f 1cbd 2a00 153c
000000c0: efa2 873a 4e5e d6bc 0bd8 b1bc 8ec2 e33b
000000d0: 4987 ae3b f594 643c db0f 37bc 9309 6abd
000000e0: f179 e9bc 1de6 da3c 0e99 00bc cc82 573c
000000f0: 6a85 32bd 66a3 0b3d 425f 5a3d bcef 0e3c
00000100: b123 b2bc ecca 7f3d 7dfa 413d 130d 243d
00000110: d342 32bd ab20 08bd 06fd 6bbd 55c3 ffbc
00000120: 98a7 a83c ff40 28bd 74f1 e2bb bba2 b03c
00000130: 2ac4 06bd 58e1 85bd 6282 8d3c 6870 b8bb
00000140: d265 35bd dc71 36bd fdda 3a3c ed44 343c
00000150: d858 d9bc 90f7 393d 4ed3 5e3d 1d31 b03b
00000160: 4a2f 123d 1a53 18bd b910 8d3c 9d7a 263c
00000170: 6450 863d fe74 663c e209 903c 4d8b a7bc
00000180: 5e32 653d 8dff 3dbd addc b0bc 3fa0 0b3c
00000190: 638f 433d b9f7 3e3d e1ef 2c3d b131 87bd
000001a0: de32 703d 293c 543d b921 44bd 5c46 39bd
000001b0: 8281 4d3c 0842 75bd ea76 6abd c6dc a63c
000001c0: 6151 4bbd 3977 dabc 6739 f3bc a2e5 21bc
000001d0: d731 433d 55c4 90bc 0f5c 62bc ca31 1f3c
000001e0: 3b8d debb 9054 f5bc e9b1 223c e920 6bbb
000001f0: 6f6b 103d d9d5 33bd aea3 6cbd 0803 5cb9
00000200: 49fc 823c a048 7bbc 292f 01bd ce7f 2fbd
00000210: cc4a 20bd 9c03 16bd 2bf2 273d 7380 023d
00000220: d9f5 4c3d 0a8e 3abd dbf1 863d fffd c7bc
00000230: 67b0 af3c 8949 323d 7ea7 f9bc 4790 c73c
00000240: c315 c33c 6a65 2e3d 0f57 553d be69 65bc
00000250: 2d8f 1a3d 9970 5e3d d375 293d 0a15 143c
00000260: ff19 e43c f648 7e3b daba 7a3d 54c3 753d
00000270: 3b27 34bd 4fe6 4cbd f11b 08bb cc0f 9ebc
00000280: 0c4f cabc 9d02 98bc 198d 7a3d 7c8e 84bc
00000290: 1ced 98bc 355a 233d 7428 17bd 90c5 db39
000002a0: c3d9 693d 2aeb 453d d3d5 3f3d 6fea 1ebd
000002b0: 265a 1fbd 8626 0a3c d5e7 d13c e8b5 45bd
000002c0: ed0e 2ebd 0928 813c 4cf5 60bc 3090 643c
000002d0: 10a1 423c 8818 babc 2dce b03a cfe4 233d
000002e0: 4163 5bbb 6986 72bd 7f10 cd3c 4631 f1bc
000002f0: abf4 62bd 0516 5bbd b8b0 053b 7975 863d
00000300: 73a7 383d 1569 ee3c 5071 4abc e6da d33c
00000310: 35cd 44bc 3df3 7d3d 7643 b63c d059 db3c
00000320: d5e3 193d 7b2e 20bd 9a56 ab3c da87 5e3b
00000330: 288a 2cbd 2660 01bc 3f4b 1fbd cc60 263b
00000340: 50d6 01bd 8dd1 103d eee3 dd3c a14e 48bd
00000350: f392 5a3c 9951 1e3d 94ee 79bd b142 2ebd
00000360: 2cfc 2bbd 1c0e 29bd db8e 62bd d89e c23b
00000370: 98e3 d93b 28bb 033b 5968 6c3d 1385 27bc
00000380: 8cee c3bc 0101 b4bc cabd 07bd cbff 03bc
00000390: 10a3 0cbd e5f9 f7bc 40cc 733d 342e 1ebd
000003a0: 443d febc 19b8 a83c 1be4 193d 1769 1abd
000003b0: 499e 403d 70f2 753d b63f 9d3c ba35 803a
000003c0: e00e 7fbc de98 0f3d c58c 77bc 4207 553c
000003d0: 13b0 32bc 3bc4 08bc 2956 2fbc f911 363d
000003e0: ce90 523d 778f 9d3c b45c 533d 91fa 1c3d
000003f0: ee74 0f3d 0112 0c3d e1b4 253d 59b5 f5bc

net.4.weight f4 [3, 256]
-0.023671567 -0.05780654 0.00011730824 -0.034090172 -0.0016687308 0.063323624 -0.04079967 0.046215724
-0.07424685 -0.07030528 0.018529747 0.0487134 0.030895695 0.04841881 -0.009075499 -0.0049992464
0.066064306 -0.027535783 0.036962777 0.05472038 0.023877334 0.058738463 -0.041948505 -0.062031917
-0.053968884 -0.028179863 -0.054513 -0.086345926 -0.046207946 -0.060092542 -0.019446881 -0.04199794
0.060942777 -0.045315128 -0.06526393 -0.018588366 0.06766845 -0.051000148 0.02659243 0.010664573
-0.050955456 -0.00866425 0.044177487 0.04224449 -0.065791816 -0.07829344 -0.057017118 0.062254865
0.010955359 -0.0411858 0.050910085 0.04965386 0.053946402 -0.06045688 0.03263285 0.015625339
-0.004339834 -0.06271708 -0.06395277 -0.0668841 0.071154006 -0.07223754 0.011737982 -0.02039165
0.04621882 -0.047176644 0.03477442 -0.065269746 0.055268966 0.034991607 0.031155119 -0.07673848
-0.0013910141 0.040798154 -0.029080039 -0.010304155 0.009318761 0.049829625 -0.029744836 0.059535667
-0.016145986 -0.041126452 0.03620642 -0.038333163 0.00083905447 -0.036846586 0.033136442 -0.010304638
0.054482084 0.01654037 0.054382455 0.02130133 0.044928476 -0.06371885 0.092822134 -0.042542998
0.049822208 0.056609016 -0.0077501857 0.011726704 -0.00904306 0.018304424 -0.004043843 0.05524637
0.096872784 -0.041480236 0.044757973 0.016626492 -0.07205904 0.041818157 0.00029300718 -0.07249757
0.01760443 -0.042722214 0.085161276 -0.034099992 0.0022246025 -0.0584229 0.04506693 0.04242958
0.01521262 0.0017063402 0.06499778 0.043142285 -0.043136835 0.008889385 0.048464984 0.066630706
0.042086847 0.055270232 -0.06948105 -0.066006534 0.03268016 -0.020129617 0.04876996 -2.2315926e-05
-0.011279282 -0.04181239 0.013302828 0.073749505 -0.03300084 0.027885262 -0.09275287 0.052506734
-0.072880395 0.026987648 -0.05465915 -0.08833778 -0.0704018 -0.021738485 -0.045891892 -0.029562308
0.019712085 -0.078203075 -0.059256174 0.009527955 -0.071753465 0.0087240385 0.046189193 0.0062551205
0.0653955 0.022553675 0.023404991 -0.06410952 -0.0048873043 -0.056290034 0.094154194 0.05638028
-0.04071293 0.014144014 -0.020144688 0.06172352 -0.03077843 -0.07105604 -0.065035574 0.025368504
0.012889889 0.044238828 0.0050526494 0.07353266 0.060154732 -0.018216407 -0.07713537 0.07362689
-0.079832226 -0.0010396477 0.055182528 -0.041066937 0.04946441 0.0712851 -0.023530135 -0.0650723
0.058362044 0.05635231 -0.009627462 0.012294667 -0.050088573 0.0615596 0.0041622412 -0.05871526
0.008291334 -0.06932228 0.004937927 0.004531826 0.043173525 -0.079264835 0.06261158 -0.03711472
0.035286635 -0.04912598 -0.036030576 0.03556055 -0.04521205 0.06827328 -0.026973708 -0.053911705
0.04847047 -0.037117157 0.017630022 0.007981842 0.0006727677 -0.07000733 0.014557217 -0.027959827
0.03598279 -0.068493314 -0.0979186 0.009772824 0.07013417 -0.065627895 0.05886184 -0.050071687
0.03709693 -0.0688091 0.08146864 -0.02254412 0.06009481 0.020540148 -0.061354496 -0.044432253
-0.050621014 0.054480188 -0.031008039 -0.01583595 -0.03509268 -0.046701368 -0.022454146 0.08726128
-0.023900803 -0.031773984 -0.006332611 0.06825618 0.036198527 -0.07676844 0.025360115 -0.073040634
00000000: e0ea c1bc 8dc6 6cbd 6203 f638 23a2 0bbd
00000010: 50b9 daba d1af 813d 8e1d 27bd b34c 3d3d
00000020: bc0e 98bd 37fc 8fbd b2cb 973c b487 473d
00000030: f818 fd3c cd52 463d 67b1 14bc b8d0 a3bb
00000040: b94c 873d b992 e1bc 4866 173d 7a22 603d
00000050: 669a c33c be97 703d 32d2 2bbd 2e15 7ebd
00000060: 7a0e 5dbd 75d9 e6bc 0649 5fbd 22d6 b0bd
00000070: 8b44 3dbd 9923 76bd 114f 9fbc 0806 2cbd
00000080: 229f 793d 5b9c 39bd 18a9 85bd a146 98bc
00000090: c295 8a3d 88e5 50bd 5ed8 d93c 76ba 2e3c
000000a0: abb6 50bd 80f4 0dbc 74f3 343d 8f08 2d3d
000000b0: dcbd 86bd 5058 a0bd c88a 69bd f5fe 7e3d
000000c0: 1b7e 333c 71b2 28bd 1887 503d d961 4b3d
000000d0: e7f6 5c3d a2a1 77bd 06aa 053d b600 803c
000000e0: 2b35 8ebb d071 80bd abf9 82bd 88fa 88bd
000000f0: 31b9 913d 46f1 93bd aa50 403c 640c a7bc
00000100: f24f 3d3d 4c3c 41bd 9f6f 0e3d 25ac 85bd
00000110: b661 623d 5c53 0f3d 0539 ff3c 1029 9dbd
00000120: b052 b6ba f71b 273d 4339 eebc c2d2 28bc
00000130: b7ad 183c 261a 4c3d 71ab f3bc acdb 733d
00000140: 9644 84bc 3674 28bd 2f4d 143d 3c03 1dbd
00000150: fef3 5b3a 72ec 16bd 14ba 073d c9d4 28bc
00000160: 9b28 5f3d ac7f 873c 23c0 5e3d 2080 ae3c
00000170: ec06 383d 077f 82bd 8819 be3d 9141 2ebd
00000180: 5f12 4c3d dbde 673d 45f5 fdbb 5d21 403c
00000190: 5829 14bc 29f3 953c 3782 84bb 054a 623d
000001a0: 3d65 c63d 2ee7 29bd 2354 373d 4834 883c
000001b0: b193 93bd 8449 2b3d c29e 9939 9b79 94bd
000001c0: 2a37 903c 7dfd 2ebd 0969 ae3d 6fac 0bbd
000001d0: a3ca 113b da4c 6fbd 1a98 383d a4ca 2d3d
000001e0: 5a3e 793c 47a7 df3a 8e1d 853d f7b5 303d
000001f0: 40b0 30bd c8a4 113c 3883 463d ae75 883d
00000200: 4263 2c3d 0a63 623d 154c 8ebd 6f2e 87bd
00000210: a2db 053d dee6 a4bc 02c3 473d 1633 bbb7
00000220: bdcc 38bc 7843 2bbd 1bf4 593c fb09 973d
00000230: e42b 07bd a26f e43c 37f5 bdbd 4d11 573d
00000240: 5142 95bd 3315 dd3c 46e2 5fbd 70ea b4bd
00000250: d22e 90bd e814 b2bc 23f9 3bbd a72c f2bc
00000260: 3d7b a13c ef28 a0bd 9ab6 72bd 241b 1c3c
00000270: 7bf3 92bd 45ef 0e3c e130 3d3d c1f7 cc3b
00000280: 13ee 853d 7cc2 b83c d3bb bf3c da4b 83bd
00000290: ae25 a0bb 6190 66bd ead3 c03d 02ef 663d
000002a0: 9ac2 26bd 4bbc 673c 7906 a5bc cdd1 7c3d
000002b0: 0c23 fcbc d485 91bd 5f31 85bd 9cd1 cf3c
000002c0: 1d30 533c c633 353d b290 a53b 4b98 963d
000002d0: cf64 763d 933a 95bc 26f9 9dbd b2c9 963d
000002e0: 147f a3bd ca44 88ba 1307 623d ce35 28bd
000002f0: 319b 4a3d ecfd 913d 45c2 c0bc a044 85bd
00000300: 0a0d 6f3d aed1 663d 81bc 1dbc 926f 493c
00000310: ad29 4dbd eb25 7c3d 6963 883b 6a7f 70bd
00000320: 60d8 073c d7f8 8dbd 55ce a13b b67f 943b
00000330: b9d6 303d 9a55 a2bd 803a 803d 9b05 18bd
00000340: b888 103d 5338 49bd cc94 13bd f0a7 113d
00000350: 4530 39bd ddd2 8b3d f7f7 dcbc 85d2 5cbd
00000360: f988 463d 2908 18bd d66c 903c 46c6 023c
00000370: ad5c 303a 0160 8fbd 6581 6e3c 020c e5bc
00000380: b162 133d 3946 8cbd 8c89 c8bd 321e 203c
00000390: 81a2 8f3d eb67 86bd 1d19 713d f817 4dbd
000003a0: f3f2 173d c9eb 8cbd 08d9 a63d 72ae b8bc
000003b0: fa25 763d d043 a83c da4e 7bbd 98fe 35bd
000003c0: fb57 4fbd 9e26 5f3d 9204 febc 65ba 81bc
000003d0: 58bd 0fbd ef49 3fbd c2f1 b7bc 0bb6 b23d
000003e0: 9ecb c3bc 7025 02bd cb81 cfbb e5c9 8b3d
000003f0: e844 143d c638 9dbd 04c0 cf3c 5496 95bd

net.4.bias f4 [3]
-0.039172415 0.055450104 -0.04000922
00000000: 4173 20bd a61f 633d b5e0 23bd
