models/downstream_head.pth (torch, 137653 bytes, 6 tensors)

net.0.weight f4 [128, 129]
000000 2b 62 59 3d 41 24 cf 3d cf 75 23 bd d2 e0 38 3d
       0.053072136 0.10114337 -0.039907273 0.04513628
000010 8b cf 1b bd de 76 ba 3a 26 9d 8f 3c b5 6b 11 3d
       -0.038039725 0.0014226099 0.017530989 0.035503108
000020 29 e6 c2 3d 52 c4 ac bd b2 68 f0 3d 2f 99 b3 bc
       0.09516556 -0.08435883 0.11738719 -0.02192363
000030 47 0b a1 3d 79 2b 49 bb ca 6d 81 3d 62 0e a8 3b
       0.07863479 -0.0030696078 0.06319769 0.0051286677
000040 4e a8 4a 3d 7c f8 e4 3c 5b 4b 81 bd 5c d7 22 bd
       0.049476914 0.027950518 -0.06313201 -0.039756164
000050 8e ce a3 bd 2b aa 90 3b db 2c a2 bd 4f df fa 3c
       -0.079983816 0.004414817 -0.07918712 0.03062406
000060 ee f8 64 bd 0f 40 1a bc ef b3 0b bd 89 34 8e bd
       -0.05590146 -0.009414687 -0.034107145 -0.06943614
000070 28 0e 38 bc 9f e7 d5 bd d3 df 7e 3d a7 f1 96 bd
       -0.011233844 -0.10444569 0.062225174 -0.0737031
000080 31 ac a0 3d e6 da a8 3c 1c 31 37 bd 08 d1 9b 3d
       0.07845343 0.020612191 -0.04472457 0.07608229
000090 2a 95 11 3b f5 67 b2 3d 2a 7f f9 3c ac af 36 bd
       0.0022214153 0.087112345 0.030456144 -0.044601128
0000a0 86 44 64 38 16 5e 23 bd 01 17 b8 3c 24 84 93 3d
       5.4423253e-05 -0.03988465 0.022471907 0.07202938
0000b0 dd 20 87 3d a7 a3 5a bc cb 1a 86 3d 1c 07 06 bc
       0.06598065 -0.013344682 0.06548079 -0.008180406
0000c0 7a 33 9a 3d dd b5 65 bd a3 02 a3 bd e2 5e 47 bd
       0.075293496 -0.05608164 -0.07959487 -0.04867447
0000d0 1b e5 af bd 9c 50 91 3d d7 b0 24 3d 72 be 52 3c
       -0.0858862 0.07095453 0.04020771 0.0128627885
0000e0 b2 14 6f 3d 29 4d 87 3c 94 ba a9 3d 8c b8 4d bd
       0.058369346 0.016516285 0.0828754 -0.050224826
0000f0 41 a3 f6 3a 15 05 dc bd 10 7d 95 3c 93 55 71 bd
       0.0018816964 -0.10743157 0.018248111 -0.0589195
000100 d6 fe 74 3c 87 8a 1c bd db 38 cb 3d aa cf 92 bd
       0.014953336 -0.038218047 0.09922954 -0.07168515
000110 52 5c 85 bd 00 a0 be bd 33 15 d3 3d a2 f4 49 3d
       -0.06511749 -0.09307861 0.10306778 0.049305566
000120 04 0a 8d 3d 23 a9 7d bd 90 6c 9b bd b0 64 24 bd
       0.06886676 -0.06192888 -0.07589066 -0.040135086
000130 d7 98 9b bd c1 69 85 3d 8c 12 8a 3c 07 01 84 3d
       -0.07597511 0.065143116 0.016854547 0.064455085
000140 e2 15 bf bc 36 6c 84 bd f2 c7 86 3d de 10 8a bc
       -0.023325864 -0.06465952 0.06581105 -0.016853746
000150 5a b5 50 3d f9 9c a3 3b e4 5c 69 3d 9f b3 b1 bd
       0.0509542 0.004993078 0.056973353 -0.08676838
000160 9f 35 81 bd e6 25 51 3d b9 64 9a 3d b8 9d 3f bd
       -0.063090555 0.051061533 0.075387426 -0.04678127
000170 62 12 19 3d 5e 64 9c 3d da cc 66 bd 05 52 8c bc
       0.037371047 0.07636331 -0.056347705 -0.017128954
000180 27 71 8f 3d 09 ff 91 bd d4 67 a9 bd bf c6 cc bd
       0.07004004 -0.07128722 -0.08271757 -0.09998845
000190 8a 56 26 bd 37 89 b5 3c 87 07 1e bc 77 9e 33 bd
       -0.040609874 0.022160156 -0.009645349 -0.043852296
0001a0 a4 d1 73 3c ea fe 4f bd 76 26 7d bd b2 7a 31 bd
       0.014881525 -0.050780214 -0.061804257 -0.043329902
0001b0 6c 46 d5 bd 00 54 96 bd c8 db 90 3d cc 64 36 3b
       -0.104138225 -0.073402405 0.0707317 0.0027831076
0001c0 81 36 24 3d c2 11 d2 bd 69 18 e2 bd 6b 3a 84 bd
       0.04009104 -0.10257293 -0.11039812 -0.06456455
0001d0 e8 bd 13 3c 2c 12 93 bd c7 a5 5c bc 63 12 89 bd
       0.009017445 -0.071812004 -0.013467259 -0.0669296
0001e0 cf 7b b4 bc 55 c9 18 bd 6e 9b 87 bc 00 c5 9a bd
       -0.022031693 -0.03730138 -0.016553607 -0.07557106
0001f0 5f 23 2f bd 79 b9 ec bc 81 38 35 bd 6d 74 af bd
       -0.042758342 -0.028897034 -0.04424334 -0.08567128
000200 af 48 2c 3e 53 1c 0e bd 2a 0c cd 3d 57 01 fc 3b
       0.16824602 -0.03469498 0.10012086 0.0076905894
000210 8b 8c f0 bd 65 74 2a 3d 3d 21 2c bd 31 13 0b 3c
       -0.117455564 0.04161491 -0.042023886 0.008488462
000220 d8 88 b9 bd 45 5c 8d bd 2a 83 b3 3b c7 8a 3a 3c
       -0.09059304 -0.06902365 0.0054782825 0.011385626
000230 39 34 41 bc 21 c8 63 bd 62 09 44 3d fe 33 35 bd
       -0.011792236 -0.05561078 0.04786051 -0.044239037
000240 45 fe 76 3b af 23 0b ba e1 73 80 3d 97 9f 4c 3d
       0.0037688178 -0.00053077465 0.06272102 0.049956884
000250 ff 6b 09 3d 5e 30 cf bd 98 ca 21 3d 79 08 a4 bd
       0.03355026 -0.10116647 0.03949985 -0.080094285
000260 80 a4 08 bd 30 b0 4a bd 71 02 f6 3d b1 95 7d bd
       -0.033360004 -0.04948443 0.120121844 -0.061910335
000270 53 17 ed 3c e9 16 3c 3c eb 3b 35 3c f8 c1 87 bd
       0.028941786 0.011480072 0.011061649 -0.066287935
000280 df 4d b8 3d 4d 08 0d 3d 0f 81 c2 3c a4 f9 c3 bd
       0.08999228 0.034431744 0.02374318 -0.095690995
000290 18 73 6d 3d d0 4f ea bc e1 62 b5 bc fb b8 c4 3d
       0.05797109 -0.02860251 -0.022141876 0.09605595
0002a0 ba c7 c9 3a ac dd 90 bd 18 10 7f bd 10 7d ae bc
       0.0015394606 -0.070735306 -0.062271208 -0.021299869
0002b0 6e b7 5d 3d b2 11 a7 bb c5 81 cd bc 30 02 4c bc
       0.05413001 -0.005098545 -0.025086293 -0.012451693
0002c0 a8 29 b3 bd b1 b6 6a 3d 90 a0 9b 3d 5e 8e af bd
       -0.0874818 0.057303134 0.07598984 -0.08572076
0002d0 89 c2 37 3b 0c 4d d7 3c 03 51 d3 3b b7 ea 66 bc
       0.0028039536 0.026281856 0.0064488663 -0.014094046
0002e0 25 d2 c4 3c 17 a6 92 3d 98 2b 55 3d af ed b0 3a
       0.024025986 0.071605854 0.052043527 0.001349857
0002f0 c7 41 ef bb 25 9c 26 bb 7a 4e 4d bd ee ee 23 bd
       -0.0073015424 -0.002542266 -0.05012367 -0.040022783
000300 8e ba 01 3d 33 68 75 3d 40 87 eb bc fc 83 56 3b
       0.031672053 0.059913825 -0.028751016 0.0032732477
000310 12 50 98 bc c2 26 b0 bc b6 28 25 bc 4f f8 3e 3d
       -0.018592868 -0.021502856 -0.010080507 0.046623524
000320 4f 14 75 bd 5b 01 4f bd ff 6f b5 3d 34 84 4d 3d
       -0.05983382 -0.050538402 0.08859252 0.050174907
000330 bc 02 aa 3c 4c 97 93 bd af 40 04 bd 41 a6 c4 bd
       0.020753257 -0.07206592 -0.03228825 -0.09602023
000340 aa 3f 2f bd c2 03 51 3d 84 c6 2e 3d 6d 53 78 3d
       -0.042785324 0.051028974 0.042669788 0.060626436
000350 51 c3 6e bd de 96 84 bd 63 b9 18 3c 52 16 a6 3d
       -0.058291737 -0.06474088 0.009321543 0.08109726
000360 06 1b ce bb ee be 2c bd 6c c6 70 3d 43 87 e1 3b
       -0.0062898425 -0.042174272 0.05878298 0.0068825795
000370 7e 79 a3 bd 32 49 3f 3d 06 5d b2 bc a0 a9 ae bc
       -0.07982157 0.046700664 -0.021772873 -0.021321118
000380 08 09 7f bd 86 b5 31 3d d1 c4 0b 3d ec 7b c2 bb
       -0.062264472 0.043386005 0.034123246 -0.005935183
000390 37 22 a1 bd 54 33 93 bd ea 1f 7f bd d0 52 76 3d
       -0.07867854 -0.071875244 -0.062286295 0.06013757
0003a0 76 70 81 3d e1 6a b9 3d 80 14 79 3d d7 ea 1e 3d
       0.06320278 0.09053589 0.060810566 0.03879818
0003b0 ec 3b 43 3c 93 d6 b9 bd c3 f0 c0 bd 71 fc ce bd
       0.011916142 -0.0907413 -0.09420922 -0.10106743
0003c0 c4 f0 9d 3c df 42 dc bc b7 4a 1b bd 1b 87 b5 bd
       0.019279845 -0.026887355 -0.03791305 -0.0886366
0003d0 49 0e 35 bd 19 44 67 bd 9f e5 7e bd 34 c6 52 3d
       -0.044203077 -0.056461427 -0.062230702 0.051458552
0003e0 fc 8e 30 bd 29 3c 06 3d 35 e5 23 bd 19 b6 a2 bd
       -0.04310511 0.032772217 -0.04001351 -0.079448886
0003f0 47 41 09 bd da 6d c2 bc 10 a3 a6 bb 89 fc ae bd
       -0.03350952 -0.023734022 -0.0050853565 -0.08544261

net.0.bias f4 [128]
000000 a6 24 1e 3c cd 97 d6 bc ac 41 82 bd 95 f4 a1 bc
       0.009652292 -0.026195431 -0.06360182 -0.019769946
000010 2f b8 b8 bd 7a f6 b4 3d e8 9c 71 bd 45 65 20 3d
       -0.09019505 0.08836074 -0.058987528 0.03915908
000020 23 6a c1 3d 3e 92 89 bc ed ef c7 3d d2 bc 90 3d
       0.09444072 -0.016793367 0.09762559 0.070672646
000030 8b 62 22 bd aa 1a 8f 3d c0 a2 fc 3c 62 6c b0 3d
       -0.03964476 0.06987508 0.030839324 0.086144224
000040 19 f8 97 bd ba a2 b8 3d e8 d9 f1 3c 0e 87 37 3d
       -0.07420368 0.09015413 0.029522851 0.044806533
000050 d3 08 dc bc ca b9 83 3d f8 5b 2e 3c 32 3b a9 3d
       -0.026859676 0.06431921 0.010642044 0.08263244
000060 2b 0f f2 3c 31 eb 99 3d 91 6c 6a bd c1 4c 76 bd
       0.029548248 0.07515562 -0.057232443 -0.060131792
000070 78 f5 48 3d f1 65 89 3d 76 a2 d9 3c 59 5c 06 3d
       0.049062222 0.06708897 0.026566725 0.032802913
000080 80 fe 27 3d ab 14 21 bd 2e aa 81 3d 67 b6 55 3d
       0.041014194 -0.03932635 0.06331287 0.052175906
000090 be 55 a8 bc 3c 14 02 bd 12 f1 a6 bd 1b f2 ab 3d
       -0.020548698 -0.03175758 -0.08151449 0.08395787
0000a0 e7 21 b0 3b a8 d1 b4 3b c9 57 7f bd ca 53 85 bd
       0.005375135 0.005518157 -0.062339578 -0.06510122
0000b0 49 aa 62 3d 14 0d ab 3d 79 e7 1f 3d 9e 13 a5 3d
       0.055338178 0.08352104 0.03903911 0.08060382
0000c0 29 d2 69 3d 80 68 98 3d 2b 54 a0 3d 79 3d 1c bc
       0.05708519 0.07441807 0.07828554 -0.009536141
0000d0 6b 8a 18 3d d4 94 62 bd 6d b7 f3 bc 52 a6 44 3a
       0.03724138 -0.055317715 -0.02975055 0.00075015903
0000e0 7c 96 95 bb 8b b1 dc 3d 76 5c 76 3d a6 ca 4c 3d
       -0.0045650583 0.10776051 0.06014677 0.049997948
0000f0 5a c5 ab 3d b8 9c 48 bd 7e 4f 1e 3c 68 b6 42 bd
       0.08387251 -0.048977584 0.009662507 -0.047537237
000100 58 e6 a3 bd 04 d8 fe 3c f5 d3 3a 3d 81 a0 6e 3c
       -0.08002919 0.031108864 0.045612294 0.014564634
000110 6e 28 5f bd f5 fe a5 3d 3e 18 82 3c cf 30 9b 3d
       -0.054481916 0.0810527 0.0158807 0.07577669
000120 d4 ea 35 bd 88 51 90 3d 44 29 ed bb 23 f4 9a bc
       -0.044413403 0.07046801 -0.0072375853 -0.018915242
000130 b4 00 75 3c 63 ee a7 bd b7 2b a4 bc 96 e2 c0 3c
       0.014953781 -0.081997655 -0.020040376 0.023545545
000140 6a 4e 5d bd 7a 81 3b 3d d1 1a ce 3d a6 29 89 3d
       -0.05402986 0.045777775 0.100637086 0.06697397
000150 5f 39 af bc 0e 18 20 bd ce 5a b3 bd 66 19 51 bd
       -0.021389661 -0.03908544 -0.08757554 -0.051049612
000160 f0 16 26 3d 99 98 7c 3d 0b 55 79 bc 43 cb 91 3c
       0.04054922 0.061668966 -0.01521803 0.017797118
000170 2d d9 ba bc b4 60 ce bb 9f 3d aa bd 4f 10 9f 3d
       -0.022808636 -0.006298149 -0.083125345 0.077667825
000180 9c 9b 76 bc 2c 1c 90 bd c6 70 a5 3c 7b ff 45 3d
       -0.015051749 -0.07036623 0.020195376 0.04833935
000190 fc d4 7a 3d ce 41 c7 bc 92 e7 3d 3b 90 29 70 bd
       0.061238274 -0.02432337 0.0028977138 -0.058633387
0001a0 6f 86 6b bd 5f ef 81 bd 37 79 56 bd 33 a4 94 3d
       -0.057501253 -0.063444845 -0.052361693 0.07257881
0001b0 85 b7 74 bd 04 f9 01 bd 2f 80 02 bd 22 fa a1 3d
       -0.05974533 -0.03173162 -0.031860527 0.07909037
0001c0 ea e6 84 3c 4a f1 d8 bc b0 41 9d 3d c2 b5 a7 bd
       0.01622339 -0.026482243 0.076785445 -0.081889644
0001d0 c2 98 3a bd a5 01 81 bd e6 d0 e2 bb fc a8 41 3d
       -0.045555837 -0.06299142 -0.0069218753 0.047280297
0001e0 9e 06 c9 3d 81 74 97 bd e0 ff 86 bd 33 1d 8e 3d
       0.09815715 -0.07395268 -0.06591773 0.06939163
0001f0 9b 07 81 3c 7a 15 36 bd 6c 7e 8f 3c 21 c0 b7 3d
       0.015750697 -0.044454075 0.017516337 0.089721926

net.2.weight f4 [128, 128]
000000 8f 77 c0 3b f6 d0 f8 bc b9 be 33 bd a6 35 ee bc
       0.0058736275 -0.030373078 -0.04388306 -0.029078316
000010 81 08 bc 3c 98 01 68 bd 89 98 0d 3e 72 1d 92 bd
       0.022953274 -0.056642145 0.13827719 -0.071345225
000020 48 4b 0a 3d 0a e0 0e 3e 4c 30 4a bd 38 47 83 bd
       0.0337632 0.13952652 -0.049362466 -0.06410068
000030 2a d0 25 bd c8 77 02 bd 6c be 70 bd d3 f3 9e bd
       -0.040481724 -0.031852514 -0.05877535 -0.077613495
000040 09 1f 8a bd 35 83 a2 bc 51 a0 a8 3d 3b e0 d4 3c
       -0.06744201 -0.019837955 0.08233703 0.025985828
000050 04 30 b6 3c 4e 58 07 bc 54 0a 8d 3c 15 20 9b 3d
       0.022239693 -0.0082608 0.017216839 0.075744785
000060 0a e0 bd 3c e0 54 8d bb 3c 8b 66 3d 14 8c ae 3d
       0.02317812 -0.0043130964 0.056285128 0.085228115
000070 f9 14 5b bd 53 94 bf 3d 89 86 d9 bc f6 ee 67 3d
       -0.053486798 0.093544625 -0.02655341 0.056624375
000080 75 a8 39 3d 5d a5 de 3c 0f 00 57 3c 2a d6 82 3d
       0.04532667 0.02717846 0.013122573 0.06388505
000090 66 c5 a4 ba f8 5d 01 3d b1 2b ab 3d 27 03 63 bc
       -0.0012571036 0.031583756 0.08357943 -0.013855732
0000a0 fb 96 03 bd 1f 70 7a 3d 8a 37 bd 3d 48 6c 02 3e
       -0.032126408 0.061142083 0.09239109 0.12736619
0000b0 c2 db cc bd b6 0c 86 3d 30 f5 f5 3c c9 38 48 bd
       -0.10002853 0.06545393 0.030024141 -0.04888228
0000c0 fa d2 51 3d d9 9c 27 bd c8 43 52 3d dd 14 ea ba
       0.051226594 -0.040921066 0.051334172 -0.0017859001
0000d0 0f ab eb 3c 03 ec 43 bd 67 ad 3d bc 44 e7 2b bd
       0.02876809 -0.0478325 -0.011576987 -0.0419686
0000e0 a9 d2 ba 3d 2e 74 82 bd f3 25 86 3b 0d 49 27 3d
       0.091222115 -0.06369816 0.0040938794 0.04084115
0000f0 04 a8 23 3d 60 48 9b 3d 3b 64 1c 3d 2d 36 5b 3c
       0.039955154 0.07582164 0.038181525 0.013379616
000100 30 a0 48 3c 8b f8 04 bd 44 2e 8d bc 18 e4 2e bd
       0.012245223 -0.03246359 -0.017233975 -0.042697996
000110 dc b4 90 3d 5d 9d 22 bd 82 5b 33 bd 5a 59 b2 bd
       0.07065746 -0.039700855 -0.04378844 -0.08708449
000120 3e 1d 52 bd 5a fe 94 bb f6 6c c3 3d a2 9f a8 3c
       -0.05129742 -0.0045469226 0.09542267 0.020583931
000130 17 a3 22 bd b0 82 b5 bd 37 90 4a bb 9a 02 b3 3d
       -0.039706316 -0.08862817 -0.0030908713 0.087407306
000140 35 87 9e bd c3 f9 7e 3d f6 9b b7 3d 49 cb c9 3c
       -0.077406324 0.06224991 0.08965294 0.024633067
000150 c2 55 56 3d 31 68 e5 3c fa 11 c2 bd f4 0b d2 bc
       0.05232788 0.028003784 -0.09476085 -0.025640465
000160 61 0e 2f bd a4 8d 4e bd ec 41 d0 39 e5 be c3 3c
       -0.042738322 -0.050428048 0.00039721967 0.023894737
000170 28 2e 70 bc b6 52 20 3d d8 52 15 bc e8 fc ab 3d
       -0.014659442 0.03914138 -0.00911399 0.083978474
000180 79 f8 08 bd cc aa eb 3d ba 2f b2 3d 8d 34 85 bd
       -0.033440087 0.11507186 0.08700509 -0.06504164
000190 3e f7 a6 bd 08 21 95 3d 1d 19 63 3d 3c 39 c6 3b
       -0.081526265 0.07281691 0.05544387 0.0060493033
0001a0 c7 18 43 3c 35 e4 06 bc e6 ee c6 bb 5f e7 46 3d
       0.011907763 -0.00823312 -0.0060709594 0.048560496
0001b0 95 14 29 3d cf ab d2 bd d4 b8 21 bd 32 a3 3c bd
       0.041279394 -0.10286676 -0.039482906 -0.046054073
0001c0 8d 74 38 3d 25 b2 a6 bd 3a 9f b3 bd c7 9b c5 bd
       0.045033026 -0.08139447 -0.087706044 -0.09648853
0001d0 0d c7 44 bd 97 75 78 bd b7 6b 69 3b 4b af 2f bd
       -0.048041392 -0.060659017 0.0035617182 -0.04289178
0001e0 4e ff 80 3d 06 82 91 3d 5d 44 d5 3c ca 9e 23 bd
       0.062986955 0.07104878 0.026033575 -0.039946355
0001f0 47 9e 5d 3d 11 3a 93 bd ee c4 2f bd 7e 2f 63 bb
       0.054106023 -0.0718881 -0.042912416 -0.0034665759
000200 88 3c a3 bd a8 76 da 3d 73 ee 66 3d c6 ac 3a 3d
       -0.0797053 0.10667163 0.056379747 0.045574926
000210 c2 e8 5a 3c 9c 6c c1 3d fb fe dc bc c5 67 e2 b9
       0.013361158 0.09444544 -0.026977053 -0.00043183393
000220 4d 02 68 bc 85 de 3f bc a5 3d 54 bd b5 96 60 3d
       -0.014160705 -0.011710768 -0.0518166 0.054831225
000230 9f 14 67 bd 4f a9 01 bd 72 97 8d 3d c2 88 04 bd
       -0.05641615 -0.031655606 0.069136515 -0.032356985
000240 0c 4f 1b 39 65 f6 93 bd 69 17 2d bd e8 b9 a8 3d
       0.00014811399 -0.072247304 -0.042258654 0.08238584
000250 f6 eb 91 3d bb 87 3f bb 4f ea 1b bd c3 51 6f 3d
       0.07125084 -0.0029225189 -0.03806525 0.058427583
000260 14 a7 be 3d 9c 28 ff 3c 1b 8d 4c bd 82 50 e0 3c
       0.093092114 0.031147294 -0.049939256 0.02738214
000270 a9 86 4b 3d 17 fe 0b 3d e5 10 a1 3d 88 ea b5 3d
       0.04968897 0.034177866 0.078645505 0.08882624
000280 27 f9 89 3c d8 f7 80 bd d9 76 d1 3c 59 3a 07 3d
       0.016842438 -0.062972724 0.025569366 0.03301463
000290 43 27 a7 bb 71 78 2b 3d 32 9d 8c 3d b5 b8 31 bd
       -0.005101116 0.04186291 0.0686592 -0.04338904
0002a0 35 8c bf bb a1 28 a5 bd c4 e4 11 3c 2c 74 4f 3d
       -0.0058455714 -0.0806439 0.00890464 0.0506479
0002b0 d3 b3 5f 3d dc ec 84 3c 03 6e 39 3d 0f 48 97 bd
       0.054614853 0.016226225 0.04527093 -0.07386791
0002c0 00 e6 8c bc e8 98 26 bc 7a 7f 05 bd 22 7d 9a 3d
       -0.017199516 -0.010168292 -0.032592274 0.075433984
0002d0 e1 3a 7d 3d 60 a5 80 bd 64 8e c0 bd 6e 89 eb bc
       0.06182373 -0.06281543 -0.09402159 -0.028752055
0002e0 87 8a 0d 3d c9 16 51 3d 65 6d 16 3d 05 af 9f 3d
       0.034555938 0.05104712 0.03672542 0.07797054
0002f0 bf a3 4f bd 06 dd 5c 3d 7d 5e 43 bd ea 32 0f bd
       -0.05069327 0.053921722 -0.047697533 -0.034960665
000300 2a 2e 1c 3c 27 63 8e bc 5a 33 4e bd e9 ba 17 3c
       0.009532491 -0.017381264 -0.05034194 0.009260871
000310 82 bb 72 3d 76 b2 db 3d 23 f8 7f bc 5d 7a 90 3d
       0.059260853 0.10727398 -0.015623125 0.07054589
000320 04 6b 33 bc 5f 0a 9d bd 9d 8e 97 3d 41 74 a1 bc
       -0.0109508075 -0.07667994 0.07400248 -0.019708754
000330 bb 03 53 bc 59 e5 24 bd 68 cd 80 3d df c8 78 bc
       -0.012879307 -0.040257785 0.06289178 -0.01518461
000340 38 1e 85 bc 49 3f 42 ba 39 75 fd bc 2b 13 2b 3d
       -0.016249761 -0.0007409943 -0.030939685 0.041766327
000350 cd 27 ad 3d ba 58 1c 3d 9b 87 35 bd 94 f9 fd bc
       0.08454857 0.038170554 -0.044318777 -0.031002797
000360 ae de d8 bd 30 be 84 bd d2 f9 9e bc 6c 8f 6f 3d
       -0.10589348 -0.06481588 -0.019406233 0.058486387
000370 68 47 76 3d b6 5c 70 bc 71 0a 15 bc e3 9e 3b 3d
       0.060126692 -0.0146705415 -0.009096728 0.045805823
000380 f8 01 48 bc 86 c5 61 bd bf 45 6f 3d 27 b8 fb bc
       -0.012207501 -0.055120014 0.058416124 -0.03072746
000390 07 f2 70 bd 71 df 0c 3c d8 c8 73 bd ea f7 a1 bd
       -0.058824565 0.008598194 -0.05951771 -0.07908614
0003a0 a4 00 3a bd 8c 8c 8c bc 1a 0b dd 3c 68 88 01 bd
       -0.045410767 -0.017156862 0.026982833 -0.031624228
0003b0 fe 78 7a bd 2f 2c 5b bd c8 2d a6 3d 90 14 4c bc
       -0.061150543 -0.053508934 0.08114201 -0.012456074
0003c0 e4 52 5b bd d1 dc d2 bc 31 6c 9a 3d 97 b8 25 bc
       -0.053545848 -0.02574006 0.07540167 -0.01011481
0003d0 7a 39 fe bc 64 bd d6 3d 70 58 ba 3b 15 c2 b1 3c
       -0.031033266 0.10485342 0.005686812 0.02169899
0003e0 2f 98 c4 3d cd c2 47 bc fc c2 be bc ff cb 9a 3d
       0.09599339 -0.01219244 -0.023286335 0.075584404
0003f0 7d de 78 3c 68 32 64 bd cc 46 33 3d 68 71 28 bd
       0.015189764 -0.055712134 0.04376869 -0.041123778

net.2.bias f4 [128]
000000 a6 eb 91 bd aa 5c 97 3c a0 0e 04 3d 64 fe 8f 3b
       -0.071250245 0.018476803 0.03224051 0.0043943394
000010 96 13 26 bd d4 6c 81 bc 04 be 91 bd dc ee 8b 3c
       -0.040546022 -0.015798964 -0.07116321 0.01708167
000020 00 73 4e bd 2f 47 88 3d 50 41 71 3d 79 34 64 3d
       -0.05040264 0.06654202 0.058900177 0.055714104
000030 89 bd b7 bc fd 51 21 bd c9 3a 32 bb 26 d9 0b 3c
       -0.022429245 -0.03938483 -0.0027195683 0.008535659
000040 c7 5f b7 3c b9 84 07 3d 38 bd 8f bc a3 d4 a3 bd
       0.022384537 0.03308556 -0.017546281 -0.079995416
000050 38 eb dc 3d 5c 79 55 bc cb fa 39 3b a2 02 a2 bd
       0.10787052 -0.013029423 0.0028378244 -0.079106584
000060 6c 12 94 3d fc 22 7a bd 55 23 07 3d 1b bd 6c 3d
       0.07230076 -0.06106852 0.03299268 0.057797533
000070 e7 77 d8 bc 85 f5 2a 3d 53 d7 a4 bd 35 aa 85 bd
       -0.026424361 0.041738052 -0.08048882 -0.06526605
000080 72 e9 ed 3c d2 40 16 3d 3a b6 49 bd 9f 31 a7 bb
       0.02904198 0.03668291 -0.04924605 -0.005102351
000090 b4 4e 6b bd 63 8e 49 bd d3 47 9c bb 4e d2 12 3b
       -0.057448104 -0.049208056 -0.0047693043 0.0022403183
0000a0 b7 5a 90 3d c6 4f b6 3d 32 0c 9a bd 1d c7 bd 3d
       0.070485525 0.08901934 -0.07521857 0.092664935
0000b0 18 0a 33 3d 38 67 93 3d 51 6d 0a bd db 21 a2 3c
       0.043710798 0.07197422 -0.03379566 0.019791534
0000c0 60 c5 80 bd ac 2e 75 bd 43 5f d5 3d d5 de 50 3d
       -0.06287646 -0.059858963 0.1041856 0.05099376
0000d0 dc fb c0 bd 90 7d 8d 3d 55 74 03 bc ab e6 90 bd
       -0.09423038 0.06908715 -0.008023341 -0.070752464
0000e0 68 95 ec 3c 13 a4 f2 bb 1d 41 2f bd 53 70 e2 3d
       0.028879836 -0.007404813 -0.042786706 0.110565804
0000f0 de 26 92 bd 49 90 29 3d 7c 98 a0 3d af 08 7e bd
       -0.071363196 0.041397367 0.07841584 -0.06202
000100 a9 fb 09 3d f6 b8 ab bc ad 8b 8a bc dc 17 61 3d
       0.033687267 -0.02096222 -0.016912306 0.054954395
000110 07 5f c7 3d 1e a3 13 bd cd 7c de 3d f2 78 77 bd
       0.09734922 -0.036044233 0.108636476 -0.060418077
000120 72 05 f1 3c 67 01 5a bd e5 8b b0 bc 15 89 4c bd
       0.029421542 -0.053223994 -0.021551082 -0.04993542
000130 5d 6b ae 3d 52 ea 71 bd 5d 52 5e bd 23 6e 68 bc
       0.08516572 -0.059061356 -0.054277766 -0.014186415
000140 07 c2 a2 3d be a8 8b 3c be a8 75 3d e9 cb 90 3d
       0.07947164 0.017048236 0.05997538 0.07070143
000150 0c a6 19 bb 6e bb 6a 3d 84 86 c4 bd e8 92 b5 bd
       -0.002344492 0.057307653 -0.09595969 -0.08865911
000160 38 03 94 3d 27 05 2f bd d6 11 45 3d 65 e4 1b 3d
       0.072271764 -0.042729523 0.048112713 0.03805961
000170 fc f3 32 3d 6b b0 a3 3d 34 84 7a 3c cd b4 82 3c
       0.043689713 0.079926334 0.015290309 0.015955353
000180 35 cb 57 bd f4 7b 5e bd 06 18 c5 3a e8 f0 9f 3c
       -0.052684028 -0.05431743 0.0015037067 0.019524053
000190 f6 29 f8 bc f5 a4 f0 39 bf 75 b2 3c 93 bd b8 3c
       -0.030293446 0.0004589927 0.021784661 0.022551334
0001a0 06 7e 9a bd 81 d7 13 3d 31 8b 6d bb ae 9e 6c 3d
       -0.07543568 0.036094192 -0.0036246295 0.057768516
0001b0 0d 0f b7 bd 4a 61 f4 3b 5a 23 0a 3c b2 e2 d2 3c
       -0.089384176 0.007457887 0.00843128 0.025742862
0001c0 62 a2 bd bd b8 ae bd bc 04 f7 a4 3c 7a 71 76 bd
       -0.09259488 -0.023154601 0.020137317 -0.060166813
0001d0 96 d8 9b bd 84 c6 e5 3b d7 ec 98 3d 96 2d 7d bd
       -0.0760967 0.0070121903 0.074670486 -0.061811052
0001e0 89 eb 90 bb 89 04 d3 bd 53 ee 61 3b 22 23 5d 3d
       -0.004422609 -0.103035994 0.0034474328 0.053988583
0001f0 f4 ab b3 bd 54 0e 89 3b 4c 7b b2 bb 22 e5 f4 bc
       -0.08773032 0.0041826162 -0.005446827 -0.029894415

net.4.weight f4 [3, 128]
000000 de 52 ae bd 30 1c ca bc 3a 9b 79 3d 7e d3 72 bd
       -0.085118994 -0.024671644 0.06093905 -0.059283726
000010 89 d5 3e bd 9a b1 87 bd 85 ab 64 bd 6c 7c b2 3d
       -0.04659036 -0.06625672 -0.055827636 0.08715138
000020 19 15 91 3d 3e 1f a2 bd bd 3d c9 3d 8a 9b 62 3d
       0.07084102 -0.07916115 0.09826229 0.055324115
000030 45 50 2c 3d 03 dd a4 bd 51 80 3a bd c6 ed ba 3d
       0.04206874 -0.08049967 -0.04553253 0.09127383
000040 2c 06 a6 3d 12 12 ea 3c 1b 8c 4c bd aa ee 22 bd
       0.08106646 0.02857307 -0.049938302 -0.03977839
000050 20 52 75 3d 46 3d 30 3d 10 dc 3f bd 45 73 80 bd
       0.059892774 0.043027185 -0.046840727 -0.06271986
000060 ca 5e de bd c4 96 a2 bd 5a b8 6c bd 92 93 55 3d
       -0.10857923 -0.079389125 -0.057793 0.052142687
000070 51 e1 91 bd 04 ea 77 3c 8f ea ad bd 32 88 93 3c
       -0.07123054 0.015131477 -0.08492004 0.018009279
000080 dd 27 84 bd e4 46 29 bd 30 28 9a 3d 73 36 ac 3c
       -0.06452916 -0.041327372 0.075271964 0.021022057
000090 d0 ef bf 3d 6d 29 e0 3c 36 20 4c bc 97 6d c3 3d
       0.093719125 0.027363503 -0.012458852 0.09542387
0000a0 24 c8 85 bd 94 c9 98 3d 1d e3 c5 bc 9c 8a 8c 3c
       -0.065323144 0.07460323 -0.024156148 0.017155938
0000b0 43 5b 9f bd 0a 7d 66 3c 3d b5 a4 bd 98 12 46 3d
       -0.07781079 0.014067898 -0.08042381 0.048357576
0000c0 b7 80 86 bd d4 b0 8d bc f0 7d da 3d 45 4a 45 bc
       -0.06567519 -0.017296232 0.10668552 -0.012041633
0000d0 0a 33 bf bd 7e 5d 33 3d 1f b7 32 3d 14 1a 7d bd
       -0.09335907 0.043790333 0.04363167 -0.06179245
0000e0 ab ec c8 bd 8a 1f a9 bd e2 94 5d bd a5 b0 c3 3c
       -0.09810766 -0.08257969 -0.054097064 0.023887942
0000f0 49 29 b6 bd 3c f0 bc bd 98 5a f6 3c 14 53 ac bd
       -0.08894593 -0.092255086 0.030072495 -0.084142834
000100 91 94 fb ba 2c 11 3c 3d 5a 4a c3 3d 85 4e fe bc
       -0.0019194057 0.045914814 0.09535666 -0.0310433
000110 4b 82 30 3d 65 fc ba 3d e5 4c 3a 3d 87 88 b5 3d
       0.043093007 0.09130172 0.04548349 0.08863931
000120 c5 61 48 bd 90 75 ce 3d 87 fa 94 bd fd 38 79 3d
       -0.048921365 0.10081017 -0.07274347 0.060845364
000130 cd 44 88 bb 38 b1 cf bc 1c f6 d7 3d 39 61 3f 3d
       -0.0041585923 -0.02535306 0.105449885 0.046723578
000140 46 4e 14 3d d0 7c c6 bc 30 56 c4 3d 3c af db 3c
       0.03620746 -0.024229437 0.095867515 0.026816957
000150 f4 64 9e 3b 41 ca ae bc b4 4a 3a bd 44 a3 79 bd
       0.004833812 -0.021336677 -0.0454814 -0.060946718
000160 9c 89 91 3d cb 2c 98 bb 17 7b 1f 3d 18 ad d6 bb
       0.07106325 -0.0046440116 0.038935747 -0.006551396
000170 8d 42 91 bd 03 04 95 3c 8f 91 84 bd 1f 7c e6 3c
       -0.07092772 0.01819039 -0.064730756 0.028135357
000180 bf 34 1a 3d 9c 90 cf bd 41 7b a3 3d b1 0e 37 bd
       0.03764796 -0.10135004 0.07982493 -0.044691745
000190 84 94 9d 3d 72 64 be 3d 3a 59 69 3d d5 a7 cf 3d
       0.07694343 0.09296502 0.05696986 0.10139433
0001a0 5b 24 cb bd a7 b7 ad bd 36 41 98 bc 22 03 36 bd
       -0.09919044 -0.084822945 -0.018585782 -0.04443658
0001b0 13 a5 87 bd ff 8d ed bc 7e 1f a7 bd 13 4c 9e bc
       -0.06623282 -0.028998373 -0.081603035 -0.019323384
0001c0 3c 36 ce bc 8e af cd ba c3 17 f8 3c 4d fb a5 bd
       -0.025172345 -0.0015692578 0.030284768 -0.081045724
0001d0 69 39 7b bd cb e2 17 3c db 06 96 3d d5 8d d1 3d
       -0.061334047 0.00927038 0.07325526 0.102321304
0001e0 73 e7 13 3d 55 6f a3 bc d7 fe 29 3c b4 22 d3 3d
       0.0361094 -0.019950548 0.0103757 0.103093535
0001f0 02 42 95 bd c6 5b 5e bd 22 85 1f 3d fe 6b 97 bd
       -0.072879806 -0.05428674 0.038945325 -0.07393645
000200 25 14 a6 3d 04 8e 86 bd 2a c8 45 bd 7c f6 32 3d
       0.08109311 -0.06570056 -0.048286594 0.043692097
000210 5f 07 ee bc 88 3d 8c 3d d0 6b 64 bd 91 c2 1a 3d
       -0.02905625 0.06847674 -0.05576688 0.03778321
000220 37 1f 2b 3c 86 83 a4 3d 2f 7b c0 bd 3f e0 e6 bb
       0.010444454 0.080328986 -0.093984954 -0.007045775
000230 78 74 56 bc b5 82 8c bd 0d 3f 1b 3d 51 d9 9b 3d
       -0.013089292 -0.06860868 0.037901927 0.07609809
000240 95 17 b5 3d 63 b4 39 3d 69 69 e7 bc c2 ca 5c bd
       0.088423885 0.045338046 -0.028248506 -0.053904302
000250 d6 f0 66 3d 82 ee 8b 3d 60 12 d3 bc e2 4f 72 3d
       0.056382023 0.06832601 -0.025765598 0.059158213
000260 c4 ea bd 3c 0e 84 db bc ff f5 3e 3d 01 f9 97 3d
       0.023183234 -0.026796367 0.04662132 0.074205406
000270 54 ae 96 bd 27 10 e2 3c 1b b9 6d 3d 93 49 9f 3c
       -0.07357469 0.027595593 0.05803786 0.019444263
000280 f5 7e b5 3c 44 bb 59 3d 7b 65 30 3c 9b 93 f2 3c
       0.022155264 0.053157106 0.010766382 0.0296114
000290 55 29 81 bd a1 f1 c9 bc 5c bb df bc 61 cd 52 3d
       -0.063067116 -0.02465135 -0.02731102 0.051465396
0002a0 f2 b3 84 bd 37 ef 46 3d 8d 37 53 bd 07 74 92 3d
       -0.06479634 0.048567977 -0.05156665 0.07151037
0002b0 7b ab 19 3c cf 7b 62 3c a4 6b b1 3c 5e 0f 97 3c
       0.009379263 0.013823464 0.021657772 0.018439945
0002c0 4b c7 10 3d e2 9e 4f 3d 7e 3e 9a bc 98 2b 0a bd
       0.03534631 0.05068863 -0.018828627 -0.03373298
0002d0 fd f2 94 3c 9d 21 b2 bd d7 9c b0 3c ea 48 15 3d
       0.018182272 -0.086978175 0.021559162 0.03644649
0002e0 01 19 4b 3d 4d fd 88 3d 00 cd 31 bd 99 5e 81 bd
       0.049584392 0.06688938 -0.043408394 -0.06316871
0002f0 ff 49 08 bd cd 92 88 bd 4b 60 de bb 09 a4 3f 3d
       -0.033273693 -0.06668625 -0.0067863814 0.046787295
000300 3a 88 45 3d 0f a2 a5 bd d8 67 0c 3d 68 62 b7 bc
       0.04822562 -0.08087551 0.03427872 -0.022385791
000310 3b 7c 04 bd 47 a0 66 bd 72 d9 ae bc 7a cd 1f bd
       -0.032345038 -0.056305196 -0.02134392 -0.039014317
000320 78 74 a3 3c 36 f8 74 3d 52 17 62 bc e7 3b 83 3c
       0.019952998 0.059807025 -0.013799505 0.016019775
000330 bd f9 0d bd 6b f6 48 3d b1 6c 67 bd 67 62 2e bd
       -0.034661997 0.049063127 -0.05650014 -0.042574313
000340 cb ac 39 bd 2e 0c 4c bd 35 ee b6 bc ec 89 a4 bd
       -0.045330804 -0.049816303 -0.022330383 -0.08034119
000350 eb e8 ab bc d3 4a c9 bd 32 65 cf 3a 23 e8 28 3c
       -0.020985087 -0.09828725 0.0015823005 0.010309252
000360 e0 fb 86 3d 99 bd af bd 9c a2 71 bc 2f fa 74 bc
       0.0659101 -0.08581085 -0.014748242 -0.014952227
000370 58 fe bb bc c0 bd 64 3d 4e 4b c3 3c ed 4a 28 3d
       -0.022948429 0.055845022 0.023839619 0.04108708
000380 25 93 e8 bc de a9 6d bc d2 36 37 3d 47 05 42 bd
       -0.028390476 -0.0145058315 0.044730015 -0.047368314
000390 55 4f cd 3c e7 68 1a 3d fe f9 a1 bd cf 00 13 bd
       0.025062243 0.0376977 -0.0790901 -0.035889443
0003a0 e5 09 8e bd 8f 03 98 bd 8f d0 62 3d 24 cc a9 bc
       -0.06935481 -0.07422554 0.05537468 -0.020727225
0003b0 f4 3a 26 bd 8f 3c a7 bd 23 c1 7c 3d e3 f4 06 bd
       -0.040583566 -0.081658475 0.061707627 -0.032948386
0003c0 13 2a 93 3d 79 3d 81 3d a2 20 20 bd 77 53 78 bc
       0.071857594 0.06310553 -0.03909362 -0.015156618
0003d0 87 03 f0 3c 2a 26 d6 3d d5 ec 25 bc c3 c7 cd bc
       0.029298557 0.10456498 -0.010127266 -0.025119668
0003e0 ae 23 9d 3d 5a 81 16 3d aa dd 14 bd f8 07 26 3d
       0.07672821 0.036744453 -0.036344208 0.040534943
0003f0 c2 9a ad bd 52 01 09 3d d4 57 f3 3c fa fa 28 bd
       -0.08476783 0.033448525 0.029704966 -0.041254975

net.4.bias f4 [3]
000000 b0 c3 a1 3c 69 86 a4 3d af 77 82 3c
       0.019746631 0.08033449 0.01592621
