models/downstream_head.pth (torch, 202869 bytes, 6 tensors)

net.0.weight f4 [128, 256]
0	0x3d516371	0.051120225
1	0x3d90c8fd	0.070695855
2	0xbc35f4db	-0.011105741
3	0x3d6cb751	0.05779201
4	0xbbd8801b	-0.0066070682
5	0x3c8d6b10	0.017262965
6	0xbd23ba6d	-0.03997271
7	0x3d190ab6	0.03736373
8	0x3d60d728	0.05489269
9	0xbd5f425d	-0.05450665
10	0x3d2ff1a8	0.04295507
11	0x3c764477	0.015030972
12	0x3d44a642	0.04801012
13	0x3c03cef8	0.008044951
14	0x3cbbdfe5	0.02293391
15	0xbcc93935	-0.024563411
16	0x3d5c13a1	0.053729657
17	0x3baf2390	0.0053448156
18	0xbd037f03	-0.03210355
19	0x3cab6268	0.020920947
20	0xbcdf6a1b	-0.027272275
21	0xbb8ce229	-0.0042994213
22	0xbcbaddee	-0.022810902
23	0x3d657c83	0.056026947
24	0xbd7471b7	-0.05967876
25	0xbd5b02ce	-0.05346947
26	0x3c396ecf	0.011317923
27	0xbd22443f	-0.039615866
28	0x3bc6e925	0.0060702735
29	0xbd63d913	-0.05562694
30	0x3d92ca75	0.07167522
31	0xbd68c410	-0.056827605
32	0x3d4caec6	0.049971364
33	0x3c461f98	0.0120924935
34	0xbca8681e	-0.02055746
35	0x3d484fdc	0.048904285
36	0x3c296d2f	0.010340973
37	0x3d628b20	0.05530846
38	0x3c65e437	0.014031461
39	0xbc812e0c	-0.015769027
40	0x3c5544b6	0.01301687
41	0xbcd0dbcf	-0.025495438
42	0x3d15993d	0.036523093
43	0x3d7c79f2	0.061639734
44	0x3d2b65e2	0.04184521
45	0xbd12e1c8	-0.035859853
46	0x3d2853f0	0.041095674
47	0x39f542fa	0.00046779943
48	0x3d13acc2	0.036053427
49	0xbd3d2db7	-0.046186175
50	0xbd812f71	-0.06307877
51	0xbcb7700d	-0.022392297
52	0xbd448277	-0.047975983
53	0x3d287d3d	0.04113506
54	0x3c99a50f	0.018755464
55	0x3cd0093b	0.025395026
56	0x3ccaa2e5	0.024735877
57	0xbbf41e9e	-0.007449939
58	0x3d6f44e8	0.058415323
59	0xbd51e6c3	-0.051245462
60	0x3bad88c1	0.0052958434
61	0xbd43ce01	-0.047803883
62	0x3cf77f4f	0.030212073
63	0xbcca68e6	-0.024708223
64	0x3cd37264	0.025811382
65	0xbc301d52	-0.010749178
66	0x3d450628	0.048101574
67	0xbd08bd1b	-0.03338347
68	0xbc8c1091	-0.017097743
69	0xbd1b83b1	-0.037967388
70	0x3d680200	0.056642532
71	0x3cacf9c2	0.021115188
72	0x3d7d872c	0.061896488
73	0xbd3072f2	-0.04307837
74	0xbd96137d	-0.07327936
75	0xbd7e70d5	-0.062119324
76	0xbd2984f4	-0.04138656
77	0x3cad8601	0.021182062
78	0xbc4336f0	-0.011914954
79	0x3d619f51	0.055083577
80	0xbcfbb906	-0.030727874
81	0xbd298c32	-0.041393466
82	0x3d106ba3	0.0352589
83	0xbca64047	-0.020294322
84	0x3d3b747d	0.04576539
85	0xbbde352a	-0.00678124
86	0x3d464f41	0.048415426
87	0xbd9902f3	-0.07471266
88	0xbcd455d1	-0.025919827
89	0x3cb5ebf8	0.022207245
90	0x3ac783dd	0.0015221793
91	0xbc865f8c	-0.016402982
92	0x3d308f7d	0.04310559
93	0x3d1659d4	0.03670676
94	0xbd2b645d	-0.04184376
95	0xbd1ad4d8	-0.03780064
96	0x3d6fe47b	0.058567505
97	0xbca970e6	-0.020683717
98	0xbc969afd	-0.018384451
99	0xbdd6ac07	-0.1048203
100	0xbd020c08	-0.031749755
101	0x3c8519f7	0.016247733
102	0xbcaaaefb	-0.02083539
103	0xbd26f5c8	-0.04076174
104	0xbcad823f	-0.02118027
105	0xbd3eeea4	-0.046614304
106	0xbd9b0743	-0.075697444
107	0xbd0702b9	-0.03296158
108	0xbd5b0b0b	-0.05347733
109	0xbd1c42f1	-0.038149778
110	0x3d7a7a55	0.06115182
111	0x3cb1107d	0.021614308
112	0xbd279364	-0.040912047
113	0xbd6816d0	-0.05666238
114	0xbd557d4b	-0.05212144
115	0xbcb34087	-0.021881355
116	0x3c0e8ca7	0.008700526
117	0xbd5aec46	-0.053447984
118	0x3b44ae7a	0.0030011223
119	0xbd820cc5	-0.06350092
120	0x3b1be8e3	0.0023789934
121	0xbcdde854	-0.027088322
122	0xbadd7526	-0.0016895875
123	0xbd2b0d89	-0.041760955
124	0x3cd70dd0	0.026251704
125	0xbd18dce9	-0.03732005
126	0xbcebd851	-0.028789671
127	0xbd392b87	-0.045207527
128	0x3d4ecb9a	0.05048714
129	0xbc54a55d	-0.012978879
130	0x3d818611	0.06324399
131	0x3cbb6616	0.022875827
132	0xbd6bb577	-0.057546105
133	0x3d48cac5	0.0490215
134	0xbd038199	-0.032106016
135	0xbd2bcf3e	-0.04194569
136	0xbd374bb7	-0.04474994
137	0xbd89e426	-0.06732969
138	0x3c78fe83	0.015197399
139	0xbc93a1a6	-0.018021416
140	0x3e0736f6	0.1320456
141	0xbda9400c	-0.08264169
142	0x3d86a3b5	0.065741934
143	0xbdd39ea1	-0.103329904
144	0xbc8a6939	-0.016895877
145	0xbb2f4349	-0.0026742986
146	0x3d01bd26	0.031674527
147	0x3d6cea54	0.05784066
148	0x3d8932b2	0.066991225
149	0xbd429f00	-0.047514915
150	0x3d85a5fe	0.06525801
151	0xbce11ffe	-0.027481075
152	0xbbdb889d	-0.006699635
153	0xbd432799	-0.047645185
154	0x3d6f561b	0.058431726
155	0xbdad9a54	-0.084767014
156	0x3d064059	0.03277621
157	0x3cd58572	0.026064608
158	0x3caa5604	0.020792969
159	0xbd029b2a	-0.031886257
160	0x3d81795f	0.06321978
161	0x3bef825f	0.0073092426
162	0x3c1da83c	0.00962263
163	0xbd886da8	-0.0666154
164	0x3d1f0d03	0.03883077
165	0xbbb022be	-0.0053752353
166	0x3aee791d	0.0018194054
167	0x3d1e0b5f	0.038585063
168	0xbc563f69	-0.013076642
169	0xbd0cd8a0	-0.034386277
170	0xbd7c7e64	-0.061643973
171	0x3d8a5e02	0.06756212
172	0x3d2e4245	0.04254367
173	0xbc8b3cc9	-0.016996758
174	0xbd24bff8	-0.04022214
175	0xbd12001e	-0.035644643
176	0xbd4e145c	-0.050312385
177	0x3c0cec56	0.008601269
178	0x3d989126	0.0744956
179	0xbd8163ae	-0.063178405
180	0x3c49e86c	0.01232348
181	0x3d07ce20	0.03315556
182	0x3c051cfd	0.008124587
183	0xbce385c6	-0.02777375
184	0x3d1360f8	0.03598115
185	0x3d4c5c6e	0.049892835
186	0x3d3c3707	0.045950916
187	0xbc46fcb5	-0.012145211
188	0xbc96b9e4	-0.018399186
189	0x3bc8638d	0.006115383
190	0xbc4d6a1c	-0.0125375055
191	0xbd038af4	-0.032114938
192	0x3d3f0809	0.046638522
193	0x3d4cb377	0.04997584
194	0xbbd77718	-0.0065754764
195	0xbc8bcd2b	-0.017065605
196	0xbc8f3362	-0.017480556
197	0xbb085f40	-0.0020808727
198	0x3cb7e3dd	0.02244752
199	0x3c750ef6	0.01495718
200	0xbd5ec96a	-0.054391302
201	0xbcfa97ba	-0.030589927
202	0x3d57637e	0.052585118
203	0x3cc7c3a0	0.024385273
204	0xbab6bfef	-0.0013942699
205	0xbd157921	-0.03649247
206	0xbd29ea10	-0.041482985
207	0xbd7c6dd4	-0.061628178
208	0xbd1f0743	-0.038825285
209	0x3cd6fd10	0.026243716
210	0x3d3147f0	0.043281496
211	0x3d15386f	0.036430772
212	0xbd56ae7e	-0.052412502
213	0xbd427717	-0.047476854
214	0xbc3741ae	-0.011185093
215	0x3d7bf8eb	0.061516684
216	0x3bf3e121	0.007442609
217	0xbbe57875	-0.007002885
218	0x3cf61a6a	0.030041892
219	0xbccab161	-0.024742784
220	0xbd317ec6	-0.04333379
221	0x3d59360b	0.053030055
222	0xbcf18041	-0.029480102
223	0xbc162e9d	-0.009166387
224	0xbd8d686e	-0.06904684
225	0x3d475b40	0.048671007
226	0x3d6a3223	0.05717672
227	0x3c922f26	0.017844748
228	0xbd9c7e15	-0.07641236
229	0xbd7ba89a	-0.061440088
230	0xbd639e3f	-0.055570837
231	0x3d463fb7	0.048400607
232	0x3d0729dc	0.032998905
233	0x3c11bdf5	0.008895387
234	0x3cb9daee	0.022687402
235	0x3ca71d0b	0.020399591
236	0xbc3eb73c	-0.011640366
237	0xbd444640	-0.047918558
238	0xbd5c7eaa	-0.053831734
239	0xbda82d5c	-0.082117766
240	0x3d5d8523	0.054082047
241	0xbd03d632	-0.032186694
242	0xbd4dd053	-0.0502475
243	0xbccba7e4	-0.02486033
244	0xbbbd78f4	-0.005782241
245	0xbd12d429	-0.035846863
246	0xbd16ab8e	-0.0367847
247	0x3beeedc4	0.0072915275
248	0xbcc43a90	-0.023953706
249	0x3d16591e	0.036706083
250	0xbce60431	-0.02807817
251	0xbd3ff7e6	-0.046867274
252	0xbcb3c678	-0.021945223
253	0xbd080a2e	-0.033212833
254	0xbc741f11	-0.014899985
255	0xbd72181b	-0.05910502

net.0.bias f4 [128]
0	0x3b158a76	0.0022818125
1	0xbd6a06f2	-0.05713553
2	0x3c8de64d	0.01732173
3	0x3cc0118a	0.023445863
4	0xbc007a07	-0.007841594
5	0x3d19d2f3	0.037554692
6	0xbd448a95	-0.047983725
7	0x3c83f5c7	0.016108407
8	0xbc7cdc57	-0.0154333925
9	0x393685b8	0.00017406687
10	0x3bb97140	0.0056592524
11	0x3d7b54ce	0.061360173
12	0xbc92270a	-0.01784088
13	0xbd682621	-0.056676988
14	0xbd1299c8	-0.03579119
15	0xbca30b7a	-0.019902933
16	0x3d556695	0.052099783
17	0x3c7a7daf	0.015288754
18	0xbcfe6c00	-0.031057358
19	0x3c0711fb	0.008244033
20	0x3d1acd92	0.037793703
21	0xbb687979	-0.0035472794
22	0x3bdf6c11	0.0068183024
23	0xbd0868b3	-0.033302974
24	0x3c2dd7ab	0.010610501
25	0xbd503841	-0.050834898
26	0xbc9e57a9	-0.019328909
27	0x3c3cb740	0.0115183
28	0x3c99afe7	0.018760635
29	0xbd468183	-0.048463356
30	0xbbf38f17	-0.007432829
31	0x3d0b6260	0.034029365
32	0x3d7adcef	0.061245855
33	0xbc2c2dc3	-0.010508957
34	0x3ce58e8d	0.028022075
35	0x3bba7012	0.0056896294
36	0xbd1413b8	-0.036151618
37	0x3c0bd450	0.008534506
38	0xbd138c44	-0.03602244
39	0x3a5e18d9	0.00084723305
40	0xbd3e41b7	-0.04644939
41	0xbd126fc7	-0.03575113
42	0xbc8b6f05	-0.017020712
43	0xbaf66684	-0.0018798863
44	0xbd4869ab	-0.048928898
45	0xbc94824d	-0.018128539
46	0xbd78fb33	-0.060786437
47	0xbd41d603	-0.047323238
48	0xbd490cee	-0.049084596
49	0xbd128366	-0.035769843
50	0xbbdcc299	-0.006737065
51	0x3d3a68d6	0.045510136
52	0x3ab2e2c3	0.0013647903
53	0xbd57c555	-0.052678425
54	0x3d566711	0.052344386
55	0xbd21d0ca	-0.039505757
56	0xbcb30abc	-0.021855704
57	0x3c9872f3	0.0186095
58	0xbc7f0765	-0.015565728
59	0x3c25d792	0.010122197
60	0xbc636612	-0.013879316
61	0xb87eab6b	-6.0717965e-05
62	0xbd62d9a1	-0.05538333
63	0x36c7bccc	5.952641e-06
64	0x3b9fa6d1	0.004872181
65	0x3d1e617d	0.03866719
66	0x3b3e303e	0.0029020454
67	0x3d1f8b74	0.038951352
68	0x3c0f6d27	0.008754051
69	0x3d08f6a6	0.033438347
70	0xbccdbec6	-0.025115382
71	0x3c19f84b	0.009397577
72	0x3be761f8	0.0070612393
73	0xbd3ae54d	-0.045628835
74	0x3d86d70c	0.06583986
75	0x3d432344	0.047641054
76	0x3d00d843	0.031456243
77	0xbd4db275	-0.050219018
78	0x3d84674a	0.06465013
79	0x3d62ebbe	0.055400603
80	0xbb6989ef	-0.0035635193
81	0xbaaaff1d	-0.0013046
82	0x3d657fd8	0.056030124
83	0xbd5236cf	-0.0513218
84	0x3d7a84e1	0.06116188
85	0xbc46cdb8	-0.012134008
86	0xbcd395fc	-0.025828354
87	0x3b979003	0.004625322
88	0x3cbb386a	0.022854049
89	0x3c4322d5	0.01191016
90	0x3d190f7b	0.03736828
91	0xbd5b18e4	-0.053490534
92	0xbb90514d	-0.004404223
93	0x3b29bf60	0.0025901422
94	0xbd34ea05	-0.04416849
95	0xbd272308	-0.040804893
96	0xbc80ec81	-0.015737774
97	0xbca4e47a	-0.020128477
98	0x3c042427	0.00806526
99	0xbcb02f21	-0.021506848
100	0x3d70eba3	0.05881847
101	0x3cbc1d4f	0.022963194
102	0xbcf14ddb	-0.02945607
103	0xbc06d92b	-0.008230488
104	0xbd55f501	-0.052235607
105	0x3cfad1c2	0.030617598
106	0xbcd65578	-0.026163802
107	0x3d50b148	0.05095032
108	0x3d24725a	0.040148117
109	0xbc5477be	-0.012968002
110	0x3c0f3d07	0.008742577
111	0xbc0b3f7a	-0.008499021
112	0xbd3cd2c2	-0.04609943
113	0xbd1e9224	-0.03871359
114	0xbd0083ee	-0.031375818
115	0x3d7220b4	0.05911322
116	0xbd38b9dd	-0.045099128
117	0x3cc82aee	0.024434533
118	0xbcc20540	-0.023684144
119	0x3cc83495	0.024439136
120	0x3d300502	0.042973526
121	0x3d2a6233	0.041597556
122	0xbd500498	-0.05078563
123	0x3bc48c55	0.005998174
124	0x3cb6cf26	0.022315573
125	0x3c40d66c	0.011769872
126	0x3baf694b	0.005353128
127	0x3d837ebd	0.06420658

net.2.weight f4 [128, 128]
0	0xbd90bb78	-0.07067007
1	0x3cb84292	0.02249268
2	0x3c062dfd	0.008189675
3	0x3dc5d924	0.09660557
4	0x3d22b900	0.03972721
5	0x38db6087	0.000104607134
6	0x3bb83a10	0.005622156
7	0xbd83e2ac	-0.064397186
8	0x3c418565	0.011811589
9	0x3c36131f	0.011112957
10	0x3dc2d47c	0.095131844
11	0x3d87a4d2	0.06623234
12	0xbc70f430	-0.014706656
13	0x3da8bf58	0.08239621
14	0xbdadbabf	-0.084828846
15	0xba8c9d4d	-0.0010728032
16	0x3d9cc793	0.07655253
17	0x3d518da6	0.051160477
18	0x3df38728	0.118910134
19	0xbcc90cdb	-0.024542263
20	0x3e06ac76	0.13151726
21	0x3c8d7193	0.01726607
22	0x3cdb1f5e	0.026748355
23	0xbd207f91	-0.039184157
24	0xbd99eb2e	-0.0751556
25	0xbc489405	-0.012242322
26	0xbc8d610d	-0.017258191
27	0xbd9f2fd1	-0.07772792
28	0x3c4feb3e	0.012690363
29	0xbc15b45a	-0.009137237
30	0x3cff49f5	0.031163195
31	0xbc95f070	-0.018303126
32	0xbbaeb59f	-0.0053317095
33	0xbd9e09a5	-0.07716683
34	0xbb2a7e09	-0.0026015064
35	0x3d921395	0.07132641
36	0xbd83c043	-0.064331554
37	0x3d9ce54e	0.07660924
38	0xbcd9a74e	-0.026569035
39	0xbcf98bce	-0.030462172
40	0x3d18e39b	0.037326436
41	0xbcbaec63	-0.022817796
42	0x3d83ffe4	0.06445292
43	0x3d53e3c6	0.051730894
44	0xb8e521bc	-0.000109258544
45	0x3b95c8f5	0.004571075
46	0xbd20b6df	-0.0392369
47	0xbd53f8ee	-0.05175107
48	0x3db11f55	0.08648554
49	0x3d853948	0.06505066
50	0x3d65a24d	0.056062985
51	0xbd8772b9	-0.066136785
52	0x3d8a602b	0.06756624
53	0xbd20f843	-0.03929926
54	0x3d3d70b0	0.046250045
55	0x3d9b4183	0.07580855
56	0xbda58192	-0.08081354
57	0xbd583a30	-0.052789867
58	0xbddb3e65	-0.1070526
59	0xbd09d6bf	-0.033652063
60	0x3d85baf6	0.065298006
61	0xbd661914	-0.05617626
62	0x3d887e65	0.06664733
63	0xbd52350b	-0.051320117
64	0xbd5d961f	-0.054098245
65	0x3ce2882b	0.02765282
66	0xbd716143	-0.058930647
67	0xbc0e05c8	-0.008668371
68	0xbda2b3f6	-0.07944481
69	0xbdaf6aa7	-0.08565264
70	0x3cb39843	0.02192319
71	0xbd2ee3af	-0.042697605
72	0x3d86c58a	0.06580646
73	0xbd585fe7	-0.052825835
74	0x3d4ba7bc	0.04972051
75	0x3d58ec15	0.05295952
76	0xbcbd3afb	-0.023099413
77	0xbd70d732	-0.058798976
78	0x3d14c68c	0.03632216
79	0xbd8cc3aa	-0.068732575
80	0x3d56dc37	0.052456107
81	0xbd4fadcf	-0.050702866
82	0xbd660563	-0.05615748
83	0xbd78eb99	-0.06077156
84	0x3d6fada7	0.058515217
85	0xbdab5e97	-0.08367651
86	0xba89be06	-0.0010508902
87	0x3d0e9914	0.034813955
88	0xbd6315ae	-0.055440597
89	0x3c2396c9	0.00998468
90	0x3de8005a	0.11328192
91	0x3d0988d2	0.033577748
92	0x3d6bae8b	0.057539504
93	0xbd54a124	-0.05191149
94	0x3d4bf74e	0.049796395
95	0xbd062b87	-0.032756355
96	0xbc13a6d7	-0.009011946
97	0x3c1610be	0.009159265
98	0xbd1e3c91	-0.03863198
99	0x3d86710d	0.065645315
100	0x3d9fed05	0.0780888
101	0xbd5804cd	-0.052738953
102	0x3daf877d	0.08570764
103	0x3cb42402	0.021989826
104	0xbc04add3	-0.008098084
105	0x3c10fee6	0.008849835
106	0x3dc8457b	0.09778877
107	0xbd9ef872	-0.07762231
108	0x3dde6fb4	0.108611494
109	0x3dcb2328	0.09918815
110	0xbb99b3f3	-0.004690641
111	0xbd952f5b	-0.07284423
112	0xbd5e575a	-0.054282524
113	0x3d9f8f55	0.0779101
114	0xbb126b44	-0.0022341767
115	0xbb89313e	-0.0041867783
116	0x3c142c8e	0.009043826
117	0x3cffcb31	0.031224819
118	0x3d98a91e	0.074541315
119	0xba67ed1c	-0.0008847283
120	0xbd96938d	-0.07352362
121	0x3c31aa70	0.010843858
122	0x3dab199e	0.083544955
123	0x3c2317ba	0.009954387
124	0xbd6c69da	-0.057718135
125	0x3a9d21c6	0.0011988215
126	0x3c9861b6	0.01860128
127	0x3d8558ca	0.06511076
128	0xbdb8a4c7	-0.09015804
129	0x3c52bc8d	0.012862337
130	0xbb87720d	-0.004133469
131	0x3cde2413	0.02711681
132	0xbd21b3da	-0.03947816
133	0x3c276620	0.01021722
134	0xbdb5f799	-0.08885116
135	0xbb4c71ce	-0.0031195763
136	0xbd970bd3	-0.07375302
137	0x3d9292b2	0.07156886
138	0x3d750eb5	0.05982848
139	0x3cb3200a	0.021865863
140	0xbc8c022e	-0.017090883
141	0xbd478c90	-0.048718035
142	0x3a8aa93e	0.0010579003
143	0xbd24ce93	-0.040236067
144	0x3ce7ca5f	0.02829474
145	0x3c211f28	0.009834088
146	0x3cd5b51b	0.026087334
147	0xbda5d3f8	-0.080970705
148	0x3df18306	0.11792569
149	0xbd00fff8	-0.03149411
150	0x3c5c9627	0.0134635335
151	0xbd8f046e	-0.06983267
152	0x3d9a4c55	0.075340904
153	0xbcb1040d	-0.021608377
154	0x3d1ded1f	0.038556214
155	0xbc94955c	-0.018137626
156	0xbb201e5b	-0.0024432156
157	0x3c898ada	0.016789842
158	0xbd575e20	-0.05258
159	0xbd902cb1	-0.07039774
160	0x3d35c2ba	0.04437516
161	0x3d46b0eb	0.048508566
162	0xbda71f96	-0.081603214
163	0xbd209b68	-0.039210707
164	0xbdb3adcc	-0.087733835
165	0xbd7bf2f2	-0.061510988
166	0x3cbc8fe5	0.023017833
167	0xbcadac22	-0.021200243
168	0x3d9b8759	0.07594175
169	0x3dc43f4b	0.09582385
170	0xbd5da55c	-0.054112777
171	0x3d814e37	0.063137464
172	0x3d01f487	0.03172734
173	0x3dbd2dba	0.09237237
174	0xbccbd835	-0.024883369
175	0xbbd46fce	-0.0064830547
176	0xbd605a3e	-0.05477356
177	0x3ca84363	0.020539945
178	0x3d9b74e8	0.075906575
179	0x3d5528fc	0.05204104
180	0xbda06f2c	-0.07833704
181	0x3d4efa7a	0.05053184
182	0xbd2f92da	-0.042864658
183	0xbd8504c5	-0.0649505
184	0x3d1bac23	0.03800596
185	0x3d2eb405	0.04265215
186	0xbd3212ab	-0.043474834
187	0x3dbf73b2	0.09348239
188	0xbceabcda	-0.028654505
189	0x3ddceee9	0.10787756
190	0x3d401da4	0.046903268
191	0xbd3e9aa7	-0.046534207
192	0x3d446e51	0.04795677
193	0xbcbbc4d0	-0.022920996
194	0xbd497275	-0.04918142
195	0x3d5ceec4	0.053938642
196	0x3dc69044	0.09695485
197	0xbd89ab8e	-0.067221746
198	0x3dca2b26	0.09871511
199	0xbdc69249	-0.096958704
200	0x3d104fcd	0.035232354
201	0xbd991ab4	-0.07475796
202	0xbcaf8683	-0.021426445
203	0xbdb37dbe	-0.08764218
204	0x3d8e61c3	0.0695224
205	0xbd9f0471	-0.07764519
206	0xbd9fafae	-0.0779718
207	0xbd60d838	-0.054893702
208	0x3d804ef7	0.06265061
209	0x3c7f3049	0.015575477
210	0x3bb2e46a	0.005459358
211	0x3d8d13d8	0.068885505
212	0xbd176079	-0.036957238
213	0x3d1c7a15	0.038202364
214	0xbd976f6c	-0.07394299
215	0xbd9653ed	-0.07340226
216	0x3d49e781	0.049293045
217	0xbd87f642	-0.06638767
218	0x3d11270c	0.03543763
219	0x3ceeae05	0.029135713
220	0x3d48a202	0.048982628
221	0x3d8fe95f	0.07026934
222	0x3c9e79d7	0.019345207
223	0xbcca8d8b	-0.024725696
224	0xbdb2c50a	-0.087289885
225	0xbc0c9eb3	-0.008582759
226	0xbd2800d2	-0.041016407
227	0x3d4e15fd	0.05031394
228	0xbd2d9100	-0.04237461
229	0xbc2812dd	-0.010258404
230	0x3a01abf2	0.00049465813
231	0xbd43f820	-0.047844052
232	0xbd6671c6	-0.056260847
233	0x3d335b2c	0.04378812
234	0x3d2bb819	0.041923616
235	0x3d98454f	0.074350946
236	0x3c629f89	0.013831981
237	0x3c3a30ed	0.011364204
238	0x3d08a5f4	0.03336139
239	0x3d273736	0.040824138
240	0xbd9624d3	-0.073312424
241	0xbc9e4cb9	-0.019323694
242	0xbb639af5	-0.0034729813
243	0xbd6f0ff4	-0.058364823
244	0xbd8b66c0	-0.068067074
245	0x3bf4d6d9	0.007471901
246	0x3d98359b	0.074320994
247	0xbdbe2623	-0.09284618
248	0xbc9900a8	-0.01867707
249	0xbdd6791f	-0.10472321
250	0x3d2dac8d	0.042400885
251	0x3cb00fb4	0.021491863
252	0xbdc946ac	-0.09827933
253	0x3d4133ce	0.047168545
254	0xbd5028c9	-0.050820146
255	0xbccb2a17	-0.024800343

net.2.bias f4 [128]
0	0x3cabceb3	0.020972585
1	0xbc071a85	-0.008246069
2	0xbd65ad47	-0.056073453
3	0xbd3b0120	-0.04565537
4	0x39e30e61	0.00043307527
5	0xbd402207	-0.04690745
6	0xbd0fd0fb	-0.03511141
7	0x3c99bae7	0.01876588
8	0xbc787ce3	-0.015166494
9	0xbd0d6d7a	-0.034528233
10	0xbd92a936	-0.07161181
11	0x3db4e40f	0.08832561
12	0xbbf7f7a7	-0.0075673643
13	0x3d91e514	0.07123771
14	0x3d27d3d1	0.04097349
15	0x3d3208e8	0.043465525
16	0x3d8fb874	0.070176035
17	0xbd961fc7	-0.0733028
18	0x3daab13d	0.08334587
19	0xbd57e155	-0.052705128
20	0xbcf04440	-0.02932942
21	0xbd30a8ae	-0.043129615
22	0x3c784c40	0.015154898
23	0x3c5d313e	0.01350051
24	0xbcfcb63a	-0.030848611
25	0x3dac8800	0.084243774
26	0x3d735ec1	0.059416536
27	0x3b9ce0e1	0.00478755
28	0xbd00c314	-0.03143604
29	0x3d90c6e6	0.07069187
30	0xbda0b083	-0.07846167
31	0xbd73ebdf	-0.059551116
32	0xbba794d0	-0.0051141754
33	0xbd1a13a7	-0.0376164
34	0x3dbd479c	0.09242174
35	0xbd528a95	-0.051401693
36	0x3d6f63c7	0.058444764
37	0x3db84e3c	0.08999297
38	0x3d7b9e76	0.061430417
39	0x3d70a4a4	0.058750764
40	0xbbbf454b	-0.005837118
41	0xbca7ea8e	-0.020497587
42	0x3d057b01	0.03258801
43	0xbc9b3dbf	-0.018950341
44	0xbc534844	-0.012895647
45	0x3d9c0c5d	0.076195456
46	0x3d9a4868	0.07533342
47	0x3d9e2610	0.077221036
48	0x3ced85f0	0.02899453
49	0x3d262a59	0.04056773
50	0x3cc496f4	0.023997761
51	0x3b04c21c	0.00202573
52	0xbdad7c0e	-0.08470927
53	0xbd66c714	-0.0563422
54	0x3c3ffd92	0.011718171
55	0xbca4e6ea	-0.02012964
56	0xbd823af3	-0.063589
57	0xbd556bd8	-0.0521048
58	0xbd649c50	-0.055813134
59	0x3ccebc22	0.025236193
60	0xbb5060e9	-0.0031796044
61	0x3d18cc0a	0.03730396
62	0x3ca5595f	0.020184217
63	0x3d764f7d	0.0601344
64	0x3d6bbda4	0.057553902
65	0xba6109b1	-0.0008584513
66	0xbc592135	-0.013252546
67	0x3d09e21f	0.03366291
68	0x3cffe3c9	0.031236546
69	0x3d10dbef	0.035365995
70	0xbbc2994c	-0.0059386846
71	0x3ce4748f	0.02788761
72	0xbda42e25	-0.08016614
73	0x3d77cc1a	0.06049738
74	0x3d89b723	0.06724384
75	0x3d973839	0.073837705
76	0xbda59451	-0.0808493
77	0x3ccd1bc2	0.02503765
78	0x3d882631	0.066479094
79	0xbd1aeeb8	-0.037825316
80	0xbba753e1	-0.0051064347
81	0x3cc2bdfa	0.023772229
82	0x3d8b5b6a	0.06804545
83	0x3d4e0761	0.050300006
84	0xbd1ff1a0	-0.03904879
85	0xbdb07f5a	-0.086180404
86	0x3ca33254	0.01992146
87	0x3d6d2288	0.05789426
88	0x3da66482	0.08124639
89	0x3dca079a	0.09864731
90	0xbca6908d	-0.020332599
91	0xbd9b02dc	-0.07568905
92	0x3d4829d0	0.048868
93	0xbd704f69	-0.05866948
94	0x3d73ecdc	0.05955206
95	0x3d110bdd	0.035411704
96	0xbce9696a	-0.028492648
97	0xbbbdfd91	-0.0057980497
98	0x3dad8644	0.08472875
99	0xbc71a7c0	-0.014749467
100	0x3cb37371	0.021905633
101	0x3d01cadd	0.031687606
102	0x3dbd6595	0.09247891
103	0x3dc1280d	0.09431467
104	0x3c0e607e	0.008689998
105	0x3d748d01	0.059704784
106	0x3d8a5bf7	0.06755822
107	0xbcb1054e	-0.021608975
108	0xbd690bc0	-0.05689597
109	0x3d48ec34	0.049053386
110	0x3c3f48e5	0.011675094
111	0xbcb2a33a	-0.021806348
112	0x3d956ff0	0.07296741
113	0xbd8b165f	-0.06791376
114	0x3d98d989	0.074633665
115	0xbcb631f8	-0.022240624
116	0xbc6a6ad2	-0.0143076945
117	0x3bd566d8	0.006512504
118	0x3d20a1d6	0.03921684
119	0x3d76b0ef	0.06022733
120	0x3c2fbf87	0.010726816
121	0xbd1fe074	-0.039032415
122	0x3d78f286	0.060778163
123	0x3d5e09e4	0.05420865
124	0x3d973499	0.07383079
125	0xbacc2236	-0.001557416
126	0xbbd419b3	-0.00647279
127	0x3bfd895e	0.0077373227

net.4.weight f4 [3, 128]
0	0x3c9fabe3	0.019491142
1	0x3cb908b5	0.02258716
2	0x3db2867b	0.08717056
3	0xbd212382	-0.039340504
4	0xbddcad74	-0.10775271
5	0x3c62df01	0.013847114
6	0xbc745f1d	-0.014915255
7	0xbd7f204f	-0.06228667
8	0x3d14d1a1	0.03633273
9	0x3db92888	0.09040934
10	0x3da65fc1	0.08123732
11	0xbd3712bd	-0.044695605
12	0x3dc2b298	0.0950672
13	0xbc7fefd7	-0.015621147
14	0xbdba73f6	-0.09104149
15	0x3caac7ba	0.02084719
16	0xbda90be8	-0.08254224
17	0x3cf5c274	0.029999949
18	0x3d8cffad	0.06884704
19	0x3d2dcfca	0.04243449
20	0x3d2132ea	0.039355196
21	0x3ac5dbf7	0.0015095462
22	0xbbff7ea8	-0.007797081
23	0xbd7b111c	-0.061295614
24	0x3e197fe8	0.14990199
25	0x3c1688e5	0.009187912
26	0xbdca90e5	-0.09890918
27	0x3baae740	0.0052155554
28	0x3de692be	0.112584576
29	0xbb4796ae	-0.0030454802
30	0x3c85b40d	0.016321206
31	0xbd4333a6	-0.047656678
32	0xbd3fa1dd	-0.046785224
33	0xbd718dc4	-0.05897309
34	0x3d0c3af7	0.03423592
35	0xbdc7e58b	-0.09760579
36	0xbd303c19	-0.043026064
37	0x3ddc51e6	0.107578084
38	0x3c7713d6	0.015080413
39	0xbcccb9ef	-0.024991004
40	0x3cbfbdee	0.023405995
41	0xbb95e234	-0.0045740847
42	0xbc3e8d52	-0.011630373
43	0xbdaa9a11	-0.08330167
44	0x3e07f74d	0.13277932
45	0xbda54000	-0.08068848
46	0x3d8ce520	0.068796396
47	0xbdb8a44a	-0.09015711
48	0x3cb23419	0.021753358
49	0xbdc7fac5	-0.09764627
50	0x3bcf3d55	0.00632445
51	0x3d6c3c5c	0.05767475
52	0xbde7a871	-0.113114245
53	0xbd801375	-0.06253711
54	0xbd9bb683	-0.07603171
55	0xbd784763	-0.060614955
56	0x3d7b8195	0.061402876
57	0x3dc4693d	0.09590385
58	0xbd9eb8ce	-0.077500924
59	0x3d6ae302	0.057345398
60	0x3bc0a518	0.0058790557
61	0xbdbdce78	-0.092678964
62	0xbd81652f	-0.06318127
63	0xbcd0ab62	-0.025472347
64	0xbc69b9da	-0.014265502
65	0xbd53750d	-0.0516253
66	0xbc5cd81e	-0.013479261
67	0xbd8fc79b	-0.070204936
68	0x3d3e06a3	0.046393048
69	0xba5dfc3e	-0.0008468068
70	0x3d1e7336	0.038684092
71	0xbd4d0911	-0.050057475
72	0x3d47bd62	0.048764594
73	0x3dbddc81	0.092705734
74	0x3cdc3163	0.026879018
75	0x3d4b34c2	0.04961086
76	0x3da5851c	0.08082029
77	0xbdde9633	-0.10868492
78	0x3d351c2a	0.044216312
79	0x3dad5e01	0.084651954
80	0x3d4d8a39	0.050180648
81	0xbc3d136b	-0.011540274
82	0xbdc35ac7	-0.09538799
83	0x3dac6322	0.084173456
84	0xbc487e8c	-0.012237202
85	0x3d231ee3	0.039824378
86	0xbd46d552	-0.04854328
87	0x3d9d2235	0.0767254
88	0x3d6343a4	0.05548443
89	0x3c4d1866	0.012518024
90	0x3d3f8632	0.046758838
91	0xbda7f787	-0.08201509
92	0xbd3c5fb6	-0.045989715
93	0x3da23f81	0.07922269
94	0x3d995ed9	0.07488794
95	0xbca2999c	-0.019848637
96	0x3d7f6e4e	0.062361054
97	0xbd2e3ad3	-0.042536568
98	0xbde7d218	-0.11319369
99	0xbd78cafb	-0.060740452
100	0xbd9445f8	-0.07239908
101	0x3dc4e3bd	0.0961375
102	0xbdb0bd5b	-0.08629867
103	0x3d06eee2	0.03294266
104	0xbd085deb	-0.033292692
105	0xbce73d88	-0.028227583
106	0x3c829bce	0.015943434
107	0x3d343a56	0.044000946
108	0x3d5ee0fe	0.054413788
109	0x3d8706e6	0.06593113
110	0xbb9b6c7a	-0.004743156
111	0x3db59e69	0.08868105
112	0x3dea0eef	0.114286296
113	0xbd5696b2	-0.052389808
114	0xbdc1a8e7	-0.09456044
115	0xbd61985e	-0.05507695
116	0x3d72e1eb	0.059297483
117	0x3dd7f0db	0.105439864
118	0x3de5dd3f	0.1122384
119	0xbd284a96	-0.041086756
120	0x3d7facf4	0.0624208
121	0x3d793c95	0.06084879
122	0x3dad673b	0.08466955
123	0xbd4985e4	-0.049199954
124	0x3d766ab7	0.060160365
125	0xbd8d2e67	-0.06893616
126	0x3d71a283	0.058992874
127	0xbc8890fb	-0.016670695
128	0xbdbac311	-0.09119237
129	0x3dad0ed4	0.08450094
130	0xbdd51ad1	-0.104055054
131	0xbd1f805e	-0.03894078
132	0x3c0af582	0.008481385
133	0xbd815af1	-0.06316174
134	0x3dbe62b9	0.092961736
135	0x3b9e38fc	0.0048285704
136	0xbdcaad4e	-0.098963365
137	0xbcc18a07	-0.023625387
138	0x3caa1946	0.020764004
139	0x3d6f4e1b	0.058424097
140	0xbc0eeec4	-0.008723918
141	0xbd5055a3	-0.05086292
142	0x3d58f7d6	0.05297073
143	0xbe3d58b7	-0.18490873
144	0xbc50b438	-0.01273828
145	0x3c646e6c	0.013942342
146	0x3dd349a2	0.10316779
147	0xbdc2281a	-0.09480305
148	0xbe1efa90	-0.1552527
149	0x3db960a2	0.09051634
150	0x3d8105d2	0.06299938
151	0xbda14e02	-0.07876207
152	0xbd891a51	-0.066944726
153	0xbd4c4d3d	-0.049878348
154	0x3d3179d1	0.043329064
155	0x3dca55e9	0.09879667
156	0x3bcddf91	0.0062827547
157	0xbcbac841	-0.022800567
158	0xbdb22f4d	-0.08700428
159	0x3cbefbcd	0.023313427
160	0x3d8090c2	0.0627761
161	0xbd76b371	-0.060229722
162	0x3cb33578	0.021876082
163	0x3cb20cb2	0.02173457
164	0xbd8ed4a0	-0.06974149
165	0xbd97af2f	-0.074064605
166	0xbd407bc3	-0.04699303
167	0xbd57c4fd	-0.052678097
168	0xbdb4dcb6	-0.0883116
169	0xbd8b985e	-0.06816171
170	0x3d41c0a6	0.047302864
171	0x3d6aab37	0.05729219
172	0xbd08c85f	-0.033394214
173	0x3ca2c273	0.019868111
174	0x3da0d612	0.07853331
175	0x3d102b74	0.03519769
176	0xbcf63a5f	-0.03005713
177	0x3dd2be76	0.10290234
178	0xbd195f97	-0.037444677
179	0x3d19960d	0.037496615
180	0xbca33584	-0.01992298
181	0x3d993aa2	0.074818864
182	0x3bfde3a8	0.007748086
183	0xbc37207c	-0.0111771785
184	0x3da4ef70	0.080534816
185	0x3d4d678d	0.05014758
186	0x3d010ca2	0.03150619
187	0x3dcb4f6e	0.099272594
188	0x3be23e3f	0.006904393
189	0x3d72d13c	0.059281573
190	0xbdaf38b3	-0.085557364
191	0x3d219248	0.039446145
192	0xbddb8cb1	-0.10720194
193	0xbb8cf957	-0.0043021846
194	0xbd781eaa	-0.06057612
195	0x3d8ab394	0.06772533
196	0x3d9ee643	0.07758763
197	0xbe63a9c7	-0.22232734
198	0x3dd5b459	0.10434789
199	0x3db2f9a6	0.08739023
200	0x3bf16b39	0.0073675183
201	0xbbf39979	-0.007434067
202	0xbcd44f4a	-0.025916714
203	0xbd752243	-0.059847128
204	0x3dd96773	0.106154345
205	0x3df3cd97	0.119044475
206	0xbcc4a200	-0.024003029
207	0x3cf4bfb1	0.029876562
208	0x3daa218c	0.0830718
209	0x3d6aacef	0.05729383
210	0x3dc0ace2	0.09407975
211	0x3d590072	0.05297894
212	0xbd5b3b29	-0.053523216
213	0xbd259e3d	-0.04043411
214	0xbccf44fe	-0.025301453
215	0xbc8fcca7	-0.01755364
216	0xbe3f1845	-0.18661602
217	0xbdd4c7c9	-0.103896685
218	0x3dc91a3b	0.09819456
219	0x3d66362b	0.056204002
220	0xbbc8bd78	-0.006126102
221	0xbd326e90	-0.043562472
222	0x3d0f2d81	0.034955505
223	0xbd930037	-0.07177775
224	0xbd40d191	-0.047074858
225	0xbcdda466	-0.02705593
226	0x3dc3e814	0.0956575
227	0xbc0c080f	-0.008546843
228	0x3d2b1139	0.04176447
229	0x38505b79	4.9676255e-05
230	0x3cf30c31	0.0296689
231	0x3da3ca58	0.079975784
232	0xbc2966c7	-0.010339445
233	0x3d17fff2	0.037109323
234	0xbcf63a71	-0.030057164
235	0xbd5f456d	-0.05450957
236	0xbdfbef86	-0.12301545
237	0x3bd41698	0.00647242
238	0xbd3d9514	-0.04628475
239	0xbd8c576e	-0.068526134
240	0xbe1a3930	-0.15060878
241	0xb8fda5d2	-0.000120948665
242	0x3d980ec8	0.07424694
243	0xbe162ac5	-0.14664753
244	0xbcb56fec	-0.022148095
245	0x3de2aa2f	0.11067616
246	0xbcb3f4a1	-0.021967234
247	0xbda5869d	-0.08082316
248	0xbdb75bd6	-0.08953063
249	0xbd5f207a	-0.05447433
250	0x3ddcf8da	0.10789652
251	0xbd9d2078	-0.076722085
252	0xbdae9f97	-0.08526533
253	0xbdbd2227	-0.0923503
254	0x3b976232	0.00461986
255	0x3d880a75	0.066426195

net.4.bias f4 [3]
0	0x3cec50a1	0.02884704
1	0xbc2dab73	-0.010599959
2	0xbda01ec5	-0.07818369
